…
[32m2021-03-04T00:35:21 | mmf.utils.checkpoint: [0mCheckpoint loaded.
[32m2021-03-04T00:35:21 | mmf.utils.checkpoint: [0mCurrent num updates: 0
[32m2021-03-04T00:35:21 | mmf.utils.checkpoint: [0mCurrent iteration: 0
[32m2021-03-04T00:35:21 | mmf.utils.checkpoint: [0mCurrent epoch: 0
[32m2021-03-04T00:35:21 | mmf.trainers.mmf_trainer: [0m===== Model =====
[32m2021-03-04T00:35:21 | mmf.trainers.mmf_trainer: [0mDistributedDataParallel(
  (module): VisualBERT(
    (model): VisualBERTForClassification(
      (bert): VisualBERTBase(
        (embeddings): BertVisioLinguisticEmbeddings(
          (word_embeddings): Embedding(30522, 768, padding_idx=0)
          (position_embeddings): Embedding(512, 768)
          (token_type_embeddings): Embedding(2, 768)
          (LayerNorm): LayerNorm((768,), eps=1e-12, elementwise_affine=True)
          (dropout): Dropout(p=0.1, inplace=False)
          (token_type_embeddings_visual): Embedding(2, 768)
          (position_embeddings_visual): Embedding(512, 768)
          (projection): Linear(in_features=2048, out_features=768, bias=True)
        )
        (encoder): BertEncoderJit(
          (layer): ModuleList(
            (0): BertLayerJit(
              (attention): BertAttentionJit(
                (self): BertSelfAttentionJit(
                  (query): Linear(in_features=768, out_features=768, bias=True)
                  (key): Linear(in_features=768, out_features=768, bias=True)
                  (value): Linear(in_features=768, out_features=768, bias=True)
                  (dropout): Dropout(p=0.1, inplace=False)
                )
                (output): BertSelfOutput(
                  (dense): Linear(in_features=768, out_features=768, bias=True)
                  (LayerNorm): LayerNorm((768,), eps=1e-12, elementwise_affine=True)
                  (dropout): Dropout(p=0.1, inplace=False)
                )
              )
              (intermediate): BertIntermediate(
                (dense): Linear(in_features=768, out_features=3072, bias=True)
              )
              (output): BertOutput(
                (dense): Linear(in_features=3072, out_features=768, bias=True)
                (LayerNorm): LayerNorm((768,), eps=1e-12, elementwise_affine=True)
                (dropout): Dropout(p=0.1, inplace=False)
              )
            )
            (1): BertLayerJit(
              (attention): BertAttentionJit(
                (self): BertSelfAttentionJit(
                  (query): Linear(in_features=768, out_features=768, bias=True)
                  (key): Linear(in_features=768, out_features=768, bias=True)
                  (value): Linear(in_features=768, out_features=768, bias=True)
                  (dropout): Dropout(p=0.1, inplace=False)
                )
                (output): BertSelfOutput(
                  (dense): Linear(in_features=768, out_features=768, bias=True)
                  (LayerNorm): LayerNorm((768,), eps=1e-12, elementwise_affine=True)
                  (dropout): Dropout(p=0.1, inplace=False)
                )
              )
              (intermediate): BertIntermediate(
                (dense): Linear(in_features=768, out_features=3072, bias=True)
              )
              (output): BertOutput(
                (dense): Linear(in_features=3072, out_features=768, bias=True)
                (LayerNorm): LayerNorm((768,), eps=1e-12, elementwise_affine=True)
                (dropout): Dropout(p=0.1, inplace=False)
              )
            )
            (2): BertLayerJit(
              (attention): BertAttentionJit(
                (self): BertSelfAttentionJit(
                  (query): Linear(in_features=768, out_features=768, bias=True)
                  (key): Linear(in_features=768, out_features=768, bias=True)
                  (value): Linear(in_features=768, out_features=768, bias=True)
                  (dropout): Dropout(p=0.1, inplace=False)
                )
                (output): BertSelfOutput(
                  (dense): Linear(in_features=768, out_features=768, bias=True)
                  (LayerNorm): LayerNorm((768,), eps=1e-12, elementwise_affine=True)
                  (dropout): Dropout(p=0.1, inplace=False)
                )
              )
              (intermediate): BertIntermediate(
                (dense): Linear(in_features=768, out_features=3072, bias=True)
              )
              (output): BertOutput(
                (dense): Linear(in_features=3072, out_features=768, bias=True)
                (LayerNorm): LayerNorm((768,), eps=1e-12, elementwise_affine=True)
                (dropout): Dropout(p=0.1, inplace=False)
              )
            )
            (3): BertLayerJit(
              (attention): BertAttentionJit(
                (self): BertSelfAttentionJit(
                  (query): Linear(in_features=768, out_features=768, bias=True)
                  (key): Linear(in_features=768, out_features=768, bias=True)
                  (value): Linear(in_features=768, out_features=768, bias=True)
                  (dropout): Dropout(p=0.1, inplace=False)
                )
                (output): BertSelfOutput(
                  (dense): Linear(in_features=768, out_features=768, bias=True)
                  (LayerNorm): LayerNorm((768,), eps=1e-12, elementwise_affine=True)
                  (dropout): Dropout(p=0.1, inplace=False)
                )
              )
              (intermediate): BertIntermediate(
                (dense): Linear(in_features=768, out_features=3072, bias=True)
              )
              (output): BertOutput(
                (dense): Linear(in_features=3072, out_features=768, bias=True)
                (LayerNorm): LayerNorm((768,), eps=1e-12, elementwise_affine=True)
                (dropout): Dropout(p=0.1, inplace=False)
              )
            )
            (4): BertLayerJit(
              (attention): BertAttentionJit(
                (self): BertSelfAttentionJit(
                  (query): Linear(in_features=768, out_features=768, bias=True)
                  (key): Linear(in_features=768, out_features=768, bias=True)
                  (value): Linear(in_features=768, out_features=768, bias=True)
                  (dropout): Dropout(p=0.1, inplace=False)
                )
                (output): BertSelfOutput(
                  (dense): Linear(in_features=768, out_features=768, bias=True)
                  (LayerNorm): LayerNorm((768,), eps=1e-12, elementwise_affine=True)
                  (dropout): Dropout(p=0.1, inplace=False)
                )
              )
              (intermediate): BertIntermediate(
                (dense): Linear(in_features=768, out_features=3072, bias=True)
              )
              (output): BertOutput(
                (dense): Linear(in_features=3072, out_features=768, bias=True)
                (LayerNorm): LayerNorm((768,), eps=1e-12, elementwise_affine=True)
                (dropout): Dropout(p=0.1, inplace=False)
              )
            )
            (5): BertLayerJit(
              (attention): BertAttentionJit(
                (self): BertSelfAttentionJit(
                  (query): Linear(in_features=768, out_features=768, bias=True)
                  (key): Linear(in_features=768, out_features=768, bias=True)
                  (value): Linear(in_features=768, out_features=768, bias=True)
                  (dropout): Dropout(p=0.1, inplace=False)
                )
                (output): BertSelfOutput(
                  (dense): Linear(in_features=768, out_features=768, bias=True)
                  (LayerNorm): LayerNorm((768,), eps=1e-12, elementwise_affine=True)
                  (dropout): Dropout(p=0.1, inplace=False)
                )
              )
              (intermediate): BertIntermediate(
                (dense): Linear(in_features=768, out_features=3072, bias=True)
              )
              (output): BertOutput(
                (dense): Linear(in_features=3072, out_features=768, bias=True)
                (LayerNorm): LayerNorm((768,), eps=1e-12, elementwise_affine=True)
                (dropout): Dropout(p=0.1, inplace=False)
              )
            )
            (6): BertLayerJit(
              (attention): BertAttentionJit(
                (self): BertSelfAttentionJit(
                  (query): Linear(in_features=768, out_features=768, bias=True)
                  (key): Linear(in_features=768, out_features=768, bias=True)
                  (value): Linear(in_features=768, out_features=768, bias=True)
                  (dropout): Dropout(p=0.1, inplace=False)
                )
                (output): BertSelfOutput(
                  (dense): Linear(in_features=768, out_features=768, bias=True)
                  (LayerNorm): LayerNorm((768,), eps=1e-12, elementwise_affine=True)
                  (dropout): Dropout(p=0.1, inplace=False)
                )
              )
              (intermediate): BertIntermediate(
                (dense): Linear(in_features=768, out_features=3072, bias=True)
              )
              (output): BertOutput(
                (dense): Linear(in_features=3072, out_features=768, bias=True)
                (LayerNorm): LayerNorm((768,), eps=1e-12, elementwise_affine=True)
                (dropout): Dropout(p=0.1, inplace=False)
              )
            )
            (7): BertLayerJit(
              (attention): BertAttentionJit(
                (self): BertSelfAttentionJit(
                  (query): Linear(in_features=768, out_features=768, bias=True)
                  (key): Linear(in_features=768, out_features=768, bias=True)
                  (value): Linear(in_features=768, out_features=768, bias=True)
                  (dropout): Dropout(p=0.1, inplace=False)
                )
                (output): BertSelfOutput(
                  (dense): Linear(in_features=768, out_features=768, bias=True)
                  (LayerNorm): LayerNorm((768,), eps=1e-12, elementwise_affine=True)
                  (dropout): Dropout(p=0.1, inplace=False)
                )
              )
              (intermediate): BertIntermediate(
                (dense): Linear(in_features=768, out_features=3072, bias=True)
              )
              (output): BertOutput(
                (dense): Linear(in_features=3072, out_features=768, bias=True)
                (LayerNorm): LayerNorm((768,), eps=1e-12, elementwise_affine=True)
                (dropout): Dropout(p=0.1, inplace=False)
              )
            )
            (8): BertLayerJit(
              (attention): BertAttentionJit(
                (self): BertSelfAttentionJit(
                  (query): Linear(in_features=768, out_features=768, bias=True)
                  (key): Linear(in_features=768, out_features=768, bias=True)
                  (value): Linear(in_features=768, out_features=768, bias=True)
                  (dropout): Dropout(p=0.1, inplace=False)
                )
                (output): BertSelfOutput(
                  (dense): Linear(in_features=768, out_features=768, bias=True)
                  (LayerNorm): LayerNorm((768,), eps=1e-12, elementwise_affine=True)
                  (dropout): Dropout(p=0.1, inplace=False)
                )
              )
              (intermediate): BertIntermediate(
                (dense): Linear(in_features=768, out_features=3072, bias=True)
              )
              (output): BertOutput(
                (dense): Linear(in_features=3072, out_features=768, bias=True)
                (LayerNorm): LayerNorm((768,), eps=1e-12, elementwise_affine=True)
                (dropout): Dropout(p=0.1, inplace=False)
              )
            )
            (9): BertLayerJit(
              (attention): BertAttentionJit(
                (self): BertSelfAttentionJit(
                  (query): Linear(in_features=768, out_features=768, bias=True)
                  (key): Linear(in_features=768, out_features=768, bias=True)
                  (value): Linear(in_features=768, out_features=768, bias=True)
                  (dropout): Dropout(p=0.1, inplace=False)
                )
                (output): BertSelfOutput(
                  (dense): Linear(in_features=768, out_features=768, bias=True)
                  (LayerNorm): LayerNorm((768,), eps=1e-12, elementwise_affine=True)
                  (dropout): Dropout(p=0.1, inplace=False)
                )
              )
              (intermediate): BertIntermediate(
                (dense): Linear(in_features=768, out_features=3072, bias=True)
              )
              (output): BertOutput(
                (dense): Linear(in_features=3072, out_features=768, bias=True)
                (LayerNorm): LayerNorm((768,), eps=1e-12, elementwise_affine=True)
                (dropout): Dropout(p=0.1, inplace=False)
              )
            )
            (10): BertLayerJit(
              (attention): BertAttentionJit(
                (self): BertSelfAttentionJit(
                  (query): Linear(in_features=768, out_features=768, bias=True)
                  (key): Linear(in_features=768, out_features=768, bias=True)
                  (value): Linear(in_features=768, out_features=768, bias=True)
                  (dropout): Dropout(p=0.1, inplace=False)
                )
                (output): BertSelfOutput(
                  (dense): Linear(in_features=768, out_features=768, bias=True)
                  (LayerNorm): LayerNorm((768,), eps=1e-12, elementwise_affine=True)
                  (dropout): Dropout(p=0.1, inplace=False)
                )
              )
              (intermediate): BertIntermediate(
                (dense): Linear(in_features=768, out_features=3072, bias=True)
              )
              (output): BertOutput(
                (dense): Linear(in_features=3072, out_features=768, bias=True)
                (LayerNorm): LayerNorm((768,), eps=1e-12, elementwise_affine=True)
                (dropout): Dropout(p=0.1, inplace=False)
              )
            )
            (11): BertLayerJit(
              (attention): BertAttentionJit(
                (self): BertSelfAttentionJit(
                  (query): Linear(in_features=768, out_features=768, bias=True)
                  (key): Linear(in_features=768, out_features=768, bias=True)
                  (value): Linear(in_features=768, out_features=768, bias=True)
                  (dropout): Dropout(p=0.1, inplace=False)
                )
                (output): BertSelfOutput(
                  (dense): Linear(in_features=768, out_features=768, bias=True)
                  (LayerNorm): LayerNorm((768,), eps=1e-12, elementwise_affine=True)
                  (dropout): Dropout(p=0.1, inplace=False)
                )
              )
              (intermediate): BertIntermediate(
                (dense): Linear(in_features=768, out_features=3072, bias=True)
              )
              (output): BertOutput(
                (dense): Linear(in_features=3072, out_features=768, bias=True)
                (LayerNorm): LayerNorm((768,), eps=1e-12, elementwise_affine=True)
                (dropout): Dropout(p=0.1, inplace=False)
              )
            )
          )
        )
        (pooler): BertPooler(
          (dense): Linear(in_features=768, out_features=768, bias=True)
          (activation): Tanh()
        )
      )
      (dropout): Dropout(p=0.1, inplace=False)
      (classifier): Sequential(
        (0): BertPredictionHeadTransform(
          (dense): Linear(in_features=768, out_features=768, bias=True)
          (LayerNorm): LayerNorm((768,), eps=1e-12, elementwise_affine=True)
        )
        (1): Linear(in_features=768, out_features=2, bias=True)
      )
    )
    (losses): Losses(
      (losses): ModuleList(
        (0): MMFLoss(
          (loss_criterion): CrossEntropyLoss(
            (loss_fn): CrossEntropyLoss()
          )
        )
      )
    )
  )
)
[32m2021-03-04T00:35:21 | mmf.utils.general: [0mTotal Parameters: 112044290. Trained Parameters: 112044290
[32m2021-03-04T00:35:21 | mmf.trainers.core.training_loop: [0mStarting training...
…
[32m2021-03-04T04:28:11 | mmf.utils.checkpoint: [0mCheckpoint loaded.
[32m2021-03-04T04:28:11 | mmf.utils.checkpoint: [0mCurrent num updates: 0
[32m2021-03-04T04:28:11 | mmf.utils.checkpoint: [0mCurrent iteration: 0
[32m2021-03-04T04:28:11 | mmf.utils.checkpoint: [0mCurrent epoch: 0
[32m2021-03-04T04:28:11 | mmf.trainers.mmf_trainer: [0m===== Model =====
[32m2021-03-04T04:28:11 | mmf.trainers.mmf_trainer: [0mDistributedDataParallel(
  (module): ViLBERT(
    (model): ViLBERTForClassification(
      (bert): ViLBERTBase(
        (embeddings): BertEmbeddings(
          (word_embeddings): Embedding(30522, 768, padding_idx=0)
          (position_embeddings): Embedding(512, 768)
          (token_type_embeddings): Embedding(2, 768)
          (LayerNorm): LayerNorm((768,), eps=1e-12, elementwise_affine=True)
          (dropout): Dropout(p=0.1, inplace=False)
        )
        (v_embeddings): BertImageFeatureEmbeddings(
          (image_embeddings): Linear(in_features=2048, out_features=1024, bias=True)
          (image_location_embeddings): Linear(in_features=5, out_features=1024, bias=True)
          (LayerNorm): LayerNorm((1024,), eps=1e-12, elementwise_affine=True)
          (dropout): Dropout(p=0.1, inplace=False)
        )
        (encoder): BertEncoder(
          (layer): ModuleList(
            (0): BertLayer(
              (attention): BertAttention(
                (self): BertSelfAttention(
                  (query): Linear(in_features=768, out_features=768, bias=True)
                  (key): Linear(in_features=768, out_features=768, bias=True)
                  (value): Linear(in_features=768, out_features=768, bias=True)
                  (dropout): Dropout(p=0.1, inplace=False)
                )
                (output): BertSelfOutput(
                  (dense): Linear(in_features=768, out_features=768, bias=True)
                  (LayerNorm): LayerNorm((768,), eps=1e-12, elementwise_affine=True)
                  (dropout): Dropout(p=0.1, inplace=False)
                )
              )
              (intermediate): BertIntermediate(
                (dense): Linear(in_features=768, out_features=3072, bias=True)
              )
              (output): BertOutput(
                (dense): Linear(in_features=3072, out_features=768, bias=True)
                (LayerNorm): LayerNorm((768,), eps=1e-12, elementwise_affine=True)
                (dropout): Dropout(p=0.1, inplace=False)
              )
            )
            (1): BertLayer(
              (attention): BertAttention(
                (self): BertSelfAttention(
                  (query): Linear(in_features=768, out_features=768, bias=True)
                  (key): Linear(in_features=768, out_features=768, bias=True)
                  (value): Linear(in_features=768, out_features=768, bias=True)
                  (dropout): Dropout(p=0.1, inplace=False)
                )
                (output): BertSelfOutput(
                  (dense): Linear(in_features=768, out_features=768, bias=True)
                  (LayerNorm): LayerNorm((768,), eps=1e-12, elementwise_affine=True)
                  (dropout): Dropout(p=0.1, inplace=False)
                )
              )
              (intermediate): BertIntermediate(
                (dense): Linear(in_features=768, out_features=3072, bias=True)
              )
              (output): BertOutput(
                (dense): Linear(in_features=3072, out_features=768, bias=True)
                (LayerNorm): LayerNorm((768,), eps=1e-12, elementwise_affine=True)
                (dropout): Dropout(p=0.1, inplace=False)
              )
            )
            (2): BertLayer(
              (attention): BertAttention(
                (self): BertSelfAttention(
                  (query): Linear(in_features=768, out_features=768, bias=True)
                  (key): Linear(in_features=768, out_features=768, bias=True)
                  (value): Linear(in_features=768, out_features=768, bias=True)
                  (dropout): Dropout(p=0.1, inplace=False)
                )
                (output): BertSelfOutput(
                  (dense): Linear(in_features=768, out_features=768, bias=True)
                  (LayerNorm): LayerNorm((768,), eps=1e-12, elementwise_affine=True)
                  (dropout): Dropout(p=0.1, inplace=False)
                )
              )
              (intermediate): BertIntermediate(
                (dense): Linear(in_features=768, out_features=3072, bias=True)
              )
              (output): BertOutput(
                (dense): Linear(in_features=3072, out_features=768, bias=True)
                (LayerNorm): LayerNorm((768,), eps=1e-12, elementwise_affine=True)
                (dropout): Dropout(p=0.1, inplace=False)
              )
            )
            (3): BertLayer(
              (attention): BertAttention(
                (self): BertSelfAttention(
                  (query): Linear(in_features=768, out_features=768, bias=True)
                  (key): Linear(in_features=768, out_features=768, bias=True)
                  (value): Linear(in_features=768, out_features=768, bias=True)
                  (dropout): Dropout(p=0.1, inplace=False)
                )
                (output): BertSelfOutput(
                  (dense): Linear(in_features=768, out_features=768, bias=True)
                  (LayerNorm): LayerNorm((768,), eps=1e-12, elementwise_affine=True)
                  (dropout): Dropout(p=0.1, inplace=False)
                )
              )
              (intermediate): BertIntermediate(
                (dense): Linear(in_features=768, out_features=3072, bias=True)
              )
              (output): BertOutput(
                (dense): Linear(in_features=3072, out_features=768, bias=True)
                (LayerNorm): LayerNorm((768,), eps=1e-12, elementwise_affine=True)
                (dropout): Dropout(p=0.1, inplace=False)
              )
            )
            (4): BertLayer(
              (attention): BertAttention(
                (self): BertSelfAttention(
                  (query): Linear(in_features=768, out_features=768, bias=True)
                  (key): Linear(in_features=768, out_features=768, bias=True)
                  (value): Linear(in_features=768, out_features=768, bias=True)
                  (dropout): Dropout(p=0.1, inplace=False)
                )
                (output): BertSelfOutput(
                  (dense): Linear(in_features=768, out_features=768, bias=True)
                  (LayerNorm): LayerNorm((768,), eps=1e-12, elementwise_affine=True)
                  (dropout): Dropout(p=0.1, inplace=False)
                )
              )
              (intermediate): BertIntermediate(
                (dense): Linear(in_features=768, out_features=3072, bias=True)
              )
              (output): BertOutput(
                (dense): Linear(in_features=3072, out_features=768, bias=True)
                (LayerNorm): LayerNorm((768,), eps=1e-12, elementwise_affine=True)
                (dropout): Dropout(p=0.1, inplace=False)
              )
            )
            (5): BertLayer(
              (attention): BertAttention(
                (self): BertSelfAttention(
                  (query): Linear(in_features=768, out_features=768, bias=True)
                  (key): Linear(in_features=768, out_features=768, bias=True)
                  (value): Linear(in_features=768, out_features=768, bias=True)
                  (dropout): Dropout(p=0.1, inplace=False)
                )
                (output): BertSelfOutput(
                  (dense): Linear(in_features=768, out_features=768, bias=True)
                  (LayerNorm): LayerNorm((768,), eps=1e-12, elementwise_affine=True)
                  (dropout): Dropout(p=0.1, inplace=False)
                )
              )
              (intermediate): BertIntermediate(
                (dense): Linear(in_features=768, out_features=3072, bias=True)
              )
              (output): BertOutput(
                (dense): Linear(in_features=3072, out_features=768, bias=True)
                (LayerNorm): LayerNorm((768,), eps=1e-12, elementwise_affine=True)
                (dropout): Dropout(p=0.1, inplace=False)
              )
            )
            (6): BertLayer(
              (attention): BertAttention(
                (self): BertSelfAttention(
                  (query): Linear(in_features=768, out_features=768, bias=True)
                  (key): Linear(in_features=768, out_features=768, bias=True)
                  (value): Linear(in_features=768, out_features=768, bias=True)
                  (dropout): Dropout(p=0.1, inplace=False)
                )
                (output): BertSelfOutput(
                  (dense): Linear(in_features=768, out_features=768, bias=True)
                  (LayerNorm): LayerNorm((768,), eps=1e-12, elementwise_affine=True)
                  (dropout): Dropout(p=0.1, inplace=False)
                )
              )
              (intermediate): BertIntermediate(
                (dense): Linear(in_features=768, out_features=3072, bias=True)
              )
              (output): BertOutput(
                (dense): Linear(in_features=3072, out_features=768, bias=True)
                (LayerNorm): LayerNorm((768,), eps=1e-12, elementwise_affine=True)
                (dropout): Dropout(p=0.1, inplace=False)
              )
            )
            (7): BertLayer(
              (attention): BertAttention(
                (self): BertSelfAttention(
                  (query): Linear(in_features=768, out_features=768, bias=True)
                  (key): Linear(in_features=768, out_features=768, bias=True)
                  (value): Linear(in_features=768, out_features=768, bias=True)
                  (dropout): Dropout(p=0.1, inplace=False)
                )
                (output): BertSelfOutput(
                  (dense): Linear(in_features=768, out_features=768, bias=True)
                  (LayerNorm): LayerNorm((768,), eps=1e-12, elementwise_affine=True)
                  (dropout): Dropout(p=0.1, inplace=False)
                )
              )
              (intermediate): BertIntermediate(
                (dense): Linear(in_features=768, out_features=3072, bias=True)
              )
              (output): BertOutput(
                (dense): Linear(in_features=3072, out_features=768, bias=True)
                (LayerNorm): LayerNorm((768,), eps=1e-12, elementwise_affine=True)
                (dropout): Dropout(p=0.1, inplace=False)
              )
            )
            (8): BertLayer(
              (attention): BertAttention(
                (self): BertSelfAttention(
                  (query): Linear(in_features=768, out_features=768, bias=True)
                  (key): Linear(in_features=768, out_features=768, bias=True)
                  (value): Linear(in_features=768, out_features=768, bias=True)
                  (dropout): Dropout(p=0.1, inplace=False)
                )
                (output): BertSelfOutput(
                  (dense): Linear(in_features=768, out_features=768, bias=True)
                  (LayerNorm): LayerNorm((768,), eps=1e-12, elementwise_affine=True)
                  (dropout): Dropout(p=0.1, inplace=False)
                )
              )
              (intermediate): BertIntermediate(
                (dense): Linear(in_features=768, out_features=3072, bias=True)
              )
              (output): BertOutput(
                (dense): Linear(in_features=3072, out_features=768, bias=True)
                (LayerNorm): LayerNorm((768,), eps=1e-12, elementwise_affine=True)
                (dropout): Dropout(p=0.1, inplace=False)
              )
            )
            (9): BertLayer(
              (attention): BertAttention(
                (self): BertSelfAttention(
                  (query): Linear(in_features=768, out_features=768, bias=True)
                  (key): Linear(in_features=768, out_features=768, bias=True)
                  (value): Linear(in_features=768, out_features=768, bias=True)
                  (dropout): Dropout(p=0.1, inplace=False)
                )
                (output): BertSelfOutput(
                  (dense): Linear(in_features=768, out_features=768, bias=True)
                  (LayerNorm): LayerNorm((768,), eps=1e-12, elementwise_affine=True)
                  (dropout): Dropout(p=0.1, inplace=False)
                )
              )
              (intermediate): BertIntermediate(
                (dense): Linear(in_features=768, out_features=3072, bias=True)
              )
              (output): BertOutput(
                (dense): Linear(in_features=3072, out_features=768, bias=True)
                (LayerNorm): LayerNorm((768,), eps=1e-12, elementwise_affine=True)
                (dropout): Dropout(p=0.1, inplace=False)
              )
            )
            (10): BertLayer(
              (attention): BertAttention(
                (self): BertSelfAttention(
                  (query): Linear(in_features=768, out_features=768, bias=True)
                  (key): Linear(in_features=768, out_features=768, bias=True)
                  (value): Linear(in_features=768, out_features=768, bias=True)
                  (dropout): Dropout(p=0.1, inplace=False)
                )
                (output): BertSelfOutput(
                  (dense): Linear(in_features=768, out_features=768, bias=True)
                  (LayerNorm): LayerNorm((768,), eps=1e-12, elementwise_affine=True)
                  (dropout): Dropout(p=0.1, inplace=False)
                )
              )
              (intermediate): BertIntermediate(
                (dense): Linear(in_features=768, out_features=3072, bias=True)
              )
              (output): BertOutput(
                (dense): Linear(in_features=3072, out_features=768, bias=True)
                (LayerNorm): LayerNorm((768,), eps=1e-12, elementwise_affine=True)
                (dropout): Dropout(p=0.1, inplace=False)
              )
            )
            (11): BertLayer(
              (attention): BertAttention(
                (self): BertSelfAttention(
                  (query): Linear(in_features=768, out_features=768, bias=True)
                  (key): Linear(in_features=768, out_features=768, bias=True)
                  (value): Linear(in_features=768, out_features=768, bias=True)
                  (dropout): Dropout(p=0.1, inplace=False)
                )
                (output): BertSelfOutput(
                  (dense): Linear(in_features=768, out_features=768, bias=True)
                  (LayerNorm): LayerNorm((768,), eps=1e-12, elementwise_affine=True)
                  (dropout): Dropout(p=0.1, inplace=False)
                )
              )
              (intermediate): BertIntermediate(
                (dense): Linear(in_features=768, out_features=3072, bias=True)
              )
              (output): BertOutput(
                (dense): Linear(in_features=3072, out_features=768, bias=True)
                (LayerNorm): LayerNorm((768,), eps=1e-12, elementwise_affine=True)
                (dropout): Dropout(p=0.1, inplace=False)
              )
            )
          )
          (v_layer): ModuleList(
            (0): BertImageLayer(
              (attention): BertImageAttention(
                (self): BertImageSelfAttention(
                  (query): Linear(in_features=1024, out_features=1024, bias=True)
                  (key): Linear(in_features=1024, out_features=1024, bias=True)
                  (value): Linear(in_features=1024, out_features=1024, bias=True)
                  (dropout): Dropout(p=0.1, inplace=False)
                )
                (output): BertImageSelfOutput(
                  (dense): Linear(in_features=1024, out_features=1024, bias=True)
                  (LayerNorm): LayerNorm((1024,), eps=1e-12, elementwise_affine=True)
                  (dropout): Dropout(p=0.1, inplace=False)
                )
              )
              (intermediate): BertImageIntermediate(
                (dense): Linear(in_features=1024, out_features=1024, bias=True)
              )
              (output): BertImageOutput(
                (dense): Linear(in_features=1024, out_features=1024, bias=True)
                (LayerNorm): LayerNorm((1024,), eps=1e-12, elementwise_affine=True)
                (dropout): Dropout(p=0.1, inplace=False)
              )
            )
            (1): BertImageLayer(
              (attention): BertImageAttention(
                (self): BertImageSelfAttention(
                  (query): Linear(in_features=1024, out_features=1024, bias=True)
                  (key): Linear(in_features=1024, out_features=1024, bias=True)
                  (value): Linear(in_features=1024, out_features=1024, bias=True)
                  (dropout): Dropout(p=0.1, inplace=False)
                )
                (output): BertImageSelfOutput(
                  (dense): Linear(in_features=1024, out_features=1024, bias=True)
                  (LayerNorm): LayerNorm((1024,), eps=1e-12, elementwise_affine=True)
                  (dropout): Dropout(p=0.1, inplace=False)
                )
              )
              (intermediate): BertImageIntermediate(
                (dense): Linear(in_features=1024, out_features=1024, bias=True)
              )
              (output): BertImageOutput(
                (dense): Linear(in_features=1024, out_features=1024, bias=True)
                (LayerNorm): LayerNorm((1024,), eps=1e-12, elementwise_affine=True)
                (dropout): Dropout(p=0.1, inplace=False)
              )
            )
            (2): BertImageLayer(
              (attention): BertImageAttention(
                (self): BertImageSelfAttention(
                  (query): Linear(in_features=1024, out_features=1024, bias=True)
                  (key): Linear(in_features=1024, out_features=1024, bias=True)
                  (value): Linear(in_features=1024, out_features=1024, bias=True)
                  (dropout): Dropout(p=0.1, inplace=False)
                )
                (output): BertImageSelfOutput(
                  (dense): Linear(in_features=1024, out_features=1024, bias=True)
                  (LayerNorm): LayerNorm((1024,), eps=1e-12, elementwise_affine=True)
                  (dropout): Dropout(p=0.1, inplace=False)
                )
              )
              (intermediate): BertImageIntermediate(
                (dense): Linear(in_features=1024, out_features=1024, bias=True)
              )
              (output): BertImageOutput(
                (dense): Linear(in_features=1024, out_features=1024, bias=True)
                (LayerNorm): LayerNorm((1024,), eps=1e-12, elementwise_affine=True)
                (dropout): Dropout(p=0.1, inplace=False)
              )
            )
            (3): BertImageLayer(
              (attention): BertImageAttention(
                (self): BertImageSelfAttention(
                  (query): Linear(in_features=1024, out_features=1024, bias=True)
                  (key): Linear(in_features=1024, out_features=1024, bias=True)
                  (value): Linear(in_features=1024, out_features=1024, bias=True)
                  (dropout): Dropout(p=0.1, inplace=False)
                )
                (output): BertImageSelfOutput(
                  (dense): Linear(in_features=1024, out_features=1024, bias=True)
                  (LayerNorm): LayerNorm((1024,), eps=1e-12, elementwise_affine=True)
                  (dropout): Dropout(p=0.1, inplace=False)
                )
              )
              (intermediate): BertImageIntermediate(
                (dense): Linear(in_features=1024, out_features=1024, bias=True)
              )
              (output): BertImageOutput(
                (dense): Linear(in_features=1024, out_features=1024, bias=True)
                (LayerNorm): LayerNorm((1024,), eps=1e-12, elementwise_affine=True)
                (dropout): Dropout(p=0.1, inplace=False)
              )
            )
            (4): BertImageLayer(
              (attention): BertImageAttention(
                (self): BertImageSelfAttention(
                  (query): Linear(in_features=1024, out_features=1024, bias=True)
                  (key): Linear(in_features=1024, out_features=1024, bias=True)
                  (value): Linear(in_features=1024, out_features=1024, bias=True)
                  (dropout): Dropout(p=0.1, inplace=False)
                )
                (output): BertImageSelfOutput(
                  (dense): Linear(in_features=1024, out_features=1024, bias=True)
                  (LayerNorm): LayerNorm((1024,), eps=1e-12, elementwise_affine=True)
                  (dropout): Dropout(p=0.1, inplace=False)
                )
              )
              (intermediate): BertImageIntermediate(
                (dense): Linear(in_features=1024, out_features=1024, bias=True)
              )
              (output): BertImageOutput(
                (dense): Linear(in_features=1024, out_features=1024, bias=True)
                (LayerNorm): LayerNorm((1024,), eps=1e-12, elementwise_affine=True)
                (dropout): Dropout(p=0.1, inplace=False)
              )
            )
            (5): BertImageLayer(
              (attention): BertImageAttention(
                (self): BertImageSelfAttention(
                  (query): Linear(in_features=1024, out_features=1024, bias=True)
                  (key): Linear(in_features=1024, out_features=1024, bias=True)
                  (value): Linear(in_features=1024, out_features=1024, bias=True)
                  (dropout): Dropout(p=0.1, inplace=False)
                )
                (output): BertImageSelfOutput(
                  (dense): Linear(in_features=1024, out_features=1024, bias=True)
                  (LayerNorm): LayerNorm((1024,), eps=1e-12, elementwise_affine=True)
                  (dropout): Dropout(p=0.1, inplace=False)
                )
              )
              (intermediate): BertImageIntermediate(
                (dense): Linear(in_features=1024, out_features=1024, bias=True)
              )
              (output): BertImageOutput(
                (dense): Linear(in_features=1024, out_features=1024, bias=True)
                (LayerNorm): LayerNorm((1024,), eps=1e-12, elementwise_affine=True)
                (dropout): Dropout(p=0.1, inplace=False)
              )
            )
          )
          (c_layer): ModuleList(
            (0): BertConnectionLayer(
              (biattention): BertBiAttention(
                (query1): Linear(in_features=1024, out_features=1024, bias=True)
                (key1): Linear(in_features=1024, out_features=1024, bias=True)
                (value1): Linear(in_features=1024, out_features=1024, bias=True)
                (dropout1): Dropout(p=0.1, inplace=False)
                (query2): Linear(in_features=768, out_features=1024, bias=True)
                (key2): Linear(in_features=768, out_features=1024, bias=True)
                (value2): Linear(in_features=768, out_features=1024, bias=True)
                (dropout2): Dropout(p=0.1, inplace=False)
              )
              (biOutput): BertBiOutput(
                (dense1): Linear(in_features=1024, out_features=1024, bias=True)
                (LayerNorm1): LayerNorm((1024,), eps=1e-12, elementwise_affine=True)
                (dropout1): Dropout(p=0.1, inplace=False)
                (q_dense1): Linear(in_features=1024, out_features=1024, bias=True)
                (q_dropout1): Dropout(p=0.1, inplace=False)
                (dense2): Linear(in_features=1024, out_features=768, bias=True)
                (LayerNorm2): LayerNorm((768,), eps=1e-12, elementwise_affine=True)
                (dropout2): Dropout(p=0.1, inplace=False)
                (q_dense2): Linear(in_features=1024, out_features=768, bias=True)
                (q_dropout2): Dropout(p=0.1, inplace=False)
              )
              (v_intermediate): BertImageIntermediate(
                (dense): Linear(in_features=1024, out_features=1024, bias=True)
              )
              (v_output): BertImageOutput(
                (dense): Linear(in_features=1024, out_features=1024, bias=True)
                (LayerNorm): LayerNorm((1024,), eps=1e-12, elementwise_affine=True)
                (dropout): Dropout(p=0.1, inplace=False)
              )
              (t_intermediate): BertIntermediate(
                (dense): Linear(in_features=768, out_features=3072, bias=True)
              )
              (t_output): BertOutput(
                (dense): Linear(in_features=3072, out_features=768, bias=True)
                (LayerNorm): LayerNorm((768,), eps=1e-12, elementwise_affine=True)
                (dropout): Dropout(p=0.1, inplace=False)
              )
            )
            (1): BertConnectionLayer(
              (biattention): BertBiAttention(
                (query1): Linear(in_features=1024, out_features=1024, bias=True)
                (key1): Linear(in_features=1024, out_features=1024, bias=True)
                (value1): Linear(in_features=1024, out_features=1024, bias=True)
                (dropout1): Dropout(p=0.1, inplace=False)
                (query2): Linear(in_features=768, out_features=1024, bias=True)
                (key2): Linear(in_features=768, out_features=1024, bias=True)
                (value2): Linear(in_features=768, out_features=1024, bias=True)
                (dropout2): Dropout(p=0.1, inplace=False)
              )
              (biOutput): BertBiOutput(
                (dense1): Linear(in_features=1024, out_features=1024, bias=True)
                (LayerNorm1): LayerNorm((1024,), eps=1e-12, elementwise_affine=True)
                (dropout1): Dropout(p=0.1, inplace=False)
                (q_dense1): Linear(in_features=1024, out_features=1024, bias=True)
                (q_dropout1): Dropout(p=0.1, inplace=False)
                (dense2): Linear(in_features=1024, out_features=768, bias=True)
                (LayerNorm2): LayerNorm((768,), eps=1e-12, elementwise_affine=True)
                (dropout2): Dropout(p=0.1, inplace=False)
                (q_dense2): Linear(in_features=1024, out_features=768, bias=True)
                (q_dropout2): Dropout(p=0.1, inplace=False)
              )
              (v_intermediate): BertImageIntermediate(
                (dense): Linear(in_features=1024, out_features=1024, bias=True)
              )
              (v_output): BertImageOutput(
                (dense): Linear(in_features=1024, out_features=1024, bias=True)
                (LayerNorm): LayerNorm((1024,), eps=1e-12, elementwise_affine=True)
                (dropout): Dropout(p=0.1, inplace=False)
              )
              (t_intermediate): BertIntermediate(
                (dense): Linear(in_features=768, out_features=3072, bias=True)
              )
              (t_output): BertOutput(
                (dense): Linear(in_features=3072, out_features=768, bias=True)
                (LayerNorm): LayerNorm((768,), eps=1e-12, elementwise_affine=True)
                (dropout): Dropout(p=0.1, inplace=False)
              )
            )
            (2): BertConnectionLayer(
              (biattention): BertBiAttention(
                (query1): Linear(in_features=1024, out_features=1024, bias=True)
                (key1): Linear(in_features=1024, out_features=1024, bias=True)
                (value1): Linear(in_features=1024, out_features=1024, bias=True)
                (dropout1): Dropout(p=0.1, inplace=False)
                (query2): Linear(in_features=768, out_features=1024, bias=True)
                (key2): Linear(in_features=768, out_features=1024, bias=True)
                (value2): Linear(in_features=768, out_features=1024, bias=True)
                (dropout2): Dropout(p=0.1, inplace=False)
              )
              (biOutput): BertBiOutput(
                (dense1): Linear(in_features=1024, out_features=1024, bias=True)
                (LayerNorm1): LayerNorm((1024,), eps=1e-12, elementwise_affine=True)
                (dropout1): Dropout(p=0.1, inplace=False)
                (q_dense1): Linear(in_features=1024, out_features=1024, bias=True)
                (q_dropout1): Dropout(p=0.1, inplace=False)
                (dense2): Linear(in_features=1024, out_features=768, bias=True)
                (LayerNorm2): LayerNorm((768,), eps=1e-12, elementwise_affine=True)
                (dropout2): Dropout(p=0.1, inplace=False)
                (q_dense2): Linear(in_features=1024, out_features=768, bias=True)
                (q_dropout2): Dropout(p=0.1, inplace=False)
              )
              (v_intermediate): BertImageIntermediate(
                (dense): Linear(in_features=1024, out_features=1024, bias=True)
              )
              (v_output): BertImageOutput(
                (dense): Linear(in_features=1024, out_features=1024, bias=True)
                (LayerNorm): LayerNorm((1024,), eps=1e-12, elementwise_affine=True)
                (dropout): Dropout(p=0.1, inplace=False)
              )
              (t_intermediate): BertIntermediate(
                (dense): Linear(in_features=768, out_features=3072, bias=True)
              )
              (t_output): BertOutput(
                (dense): Linear(in_features=3072, out_features=768, bias=True)
                (LayerNorm): LayerNorm((768,), eps=1e-12, elementwise_affine=True)
                (dropout): Dropout(p=0.1, inplace=False)
              )
            )
            (3): BertConnectionLayer(
              (biattention): BertBiAttention(
                (query1): Linear(in_features=1024, out_features=1024, bias=True)
                (key1): Linear(in_features=1024, out_features=1024, bias=True)
                (value1): Linear(in_features=1024, out_features=1024, bias=True)
                (dropout1): Dropout(p=0.1, inplace=False)
                (query2): Linear(in_features=768, out_features=1024, bias=True)
                (key2): Linear(in_features=768, out_features=1024, bias=True)
                (value2): Linear(in_features=768, out_features=1024, bias=True)
                (dropout2): Dropout(p=0.1, inplace=False)
              )
              (biOutput): BertBiOutput(
                (dense1): Linear(in_features=1024, out_features=1024, bias=True)
                (LayerNorm1): LayerNorm((1024,), eps=1e-12, elementwise_affine=True)
                (dropout1): Dropout(p=0.1, inplace=False)
                (q_dense1): Linear(in_features=1024, out_features=1024, bias=True)
                (q_dropout1): Dropout(p=0.1, inplace=False)
                (dense2): Linear(in_features=1024, out_features=768, bias=True)
                (LayerNorm2): LayerNorm((768,), eps=1e-12, elementwise_affine=True)
                (dropout2): Dropout(p=0.1, inplace=False)
                (q_dense2): Linear(in_features=1024, out_features=768, bias=True)
                (q_dropout2): Dropout(p=0.1, inplace=False)
              )
              (v_intermediate): BertImageIntermediate(
                (dense): Linear(in_features=1024, out_features=1024, bias=True)
              )
              (v_output): BertImageOutput(
                (dense): Linear(in_features=1024, out_features=1024, bias=True)
                (LayerNorm): LayerNorm((1024,), eps=1e-12, elementwise_affine=True)
                (dropout): Dropout(p=0.1, inplace=False)
              )
              (t_intermediate): BertIntermediate(
                (dense): Linear(in_features=768, out_features=3072, bias=True)
              )
              (t_output): BertOutput(
                (dense): Linear(in_features=3072, out_features=768, bias=True)
                (LayerNorm): LayerNorm((768,), eps=1e-12, elementwise_affine=True)
                (dropout): Dropout(p=0.1, inplace=False)
              )
            )
            (4): BertConnectionLayer(
              (biattention): BertBiAttention(
                (query1): Linear(in_features=1024, out_features=1024, bias=True)
                (key1): Linear(in_features=1024, out_features=1024, bias=True)
                (value1): Linear(in_features=1024, out_features=1024, bias=True)
                (dropout1): Dropout(p=0.1, inplace=False)
                (query2): Linear(in_features=768, out_features=1024, bias=True)
                (key2): Linear(in_features=768, out_features=1024, bias=True)
                (value2): Linear(in_features=768, out_features=1024, bias=True)
                (dropout2): Dropout(p=0.1, inplace=False)
              )
              (biOutput): BertBiOutput(
                (dense1): Linear(in_features=1024, out_features=1024, bias=True)
                (LayerNorm1): LayerNorm((1024,), eps=1e-12, elementwise_affine=True)
                (dropout1): Dropout(p=0.1, inplace=False)
                (q_dense1): Linear(in_features=1024, out_features=1024, bias=True)
                (q_dropout1): Dropout(p=0.1, inplace=False)
                (dense2): Linear(in_features=1024, out_features=768, bias=True)
                (LayerNorm2): LayerNorm((768,), eps=1e-12, elementwise_affine=True)
                (dropout2): Dropout(p=0.1, inplace=False)
                (q_dense2): Linear(in_features=1024, out_features=768, bias=True)
                (q_dropout2): Dropout(p=0.1, inplace=False)
              )
              (v_intermediate): BertImageIntermediate(
                (dense): Linear(in_features=1024, out_features=1024, bias=True)
              )
              (v_output): BertImageOutput(
                (dense): Linear(in_features=1024, out_features=1024, bias=True)
                (LayerNorm): LayerNorm((1024,), eps=1e-12, elementwise_affine=True)
                (dropout): Dropout(p=0.1, inplace=False)
              )
              (t_intermediate): BertIntermediate(
                (dense): Linear(in_features=768, out_features=3072, bias=True)
              )
              (t_output): BertOutput(
                (dense): Linear(in_features=3072, out_features=768, bias=True)
                (LayerNorm): LayerNorm((768,), eps=1e-12, elementwise_affine=True)
                (dropout): Dropout(p=0.1, inplace=False)
              )
            )
            (5): BertConnectionLayer(
              (biattention): BertBiAttention(
                (query1): Linear(in_features=1024, out_features=1024, bias=True)
                (key1): Linear(in_features=1024, out_features=1024, bias=True)
                (value1): Linear(in_features=1024, out_features=1024, bias=True)
                (dropout1): Dropout(p=0.1, inplace=False)
                (query2): Linear(in_features=768, out_features=1024, bias=True)
                (key2): Linear(in_features=768, out_features=1024, bias=True)
                (value2): Linear(in_features=768, out_features=1024, bias=True)
                (dropout2): Dropout(p=0.1, inplace=False)
              )
              (biOutput): BertBiOutput(
                (dense1): Linear(in_features=1024, out_features=1024, bias=True)
                (LayerNorm1): LayerNorm((1024,), eps=1e-12, elementwise_affine=True)
                (dropout1): Dropout(p=0.1, inplace=False)
                (q_dense1): Linear(in_features=1024, out_features=1024, bias=True)
                (q_dropout1): Dropout(p=0.1, inplace=False)
                (dense2): Linear(in_features=1024, out_features=768, bias=True)
                (LayerNorm2): LayerNorm((768,), eps=1e-12, elementwise_affine=True)
                (dropout2): Dropout(p=0.1, inplace=False)
                (q_dense2): Linear(in_features=1024, out_features=768, bias=True)
                (q_dropout2): Dropout(p=0.1, inplace=False)
              )
              (v_intermediate): BertImageIntermediate(
                (dense): Linear(in_features=1024, out_features=1024, bias=True)
              )
              (v_output): BertImageOutput(
                (dense): Linear(in_features=1024, out_features=1024, bias=True)
                (LayerNorm): LayerNorm((1024,), eps=1e-12, elementwise_affine=True)
                (dropout): Dropout(p=0.1, inplace=False)
              )
              (t_intermediate): BertIntermediate(
                (dense): Linear(in_features=768, out_features=3072, bias=True)
              )
              (t_output): BertOutput(
                (dense): Linear(in_features=3072, out_features=768, bias=True)
                (LayerNorm): LayerNorm((768,), eps=1e-12, elementwise_affine=True)
                (dropout): Dropout(p=0.1, inplace=False)
              )
            )
          )
        )
        (t_pooler): BertTextPooler(
          (dense): Linear(in_features=768, out_features=1024, bias=True)
          (activation): ReLU()
        )
        (v_pooler): BertImagePooler(
          (dense): Linear(in_features=1024, out_features=1024, bias=True)
          (activation): ReLU()
        )
      )
      (dropout): Dropout(p=0.1, inplace=False)
      (classifier): Sequential(
        (0): BertPredictionHeadTransform(
          (dense): Linear(in_features=1024, out_features=1024, bias=True)
          (LayerNorm): LayerNorm((1024,), eps=1e-12, elementwise_affine=True)
        )
        (1): Linear(in_features=1024, out_features=2, bias=True)
      )
    )
    (losses): Losses(
      (losses): ModuleList(
        (0): MMFLoss(
          (loss_criterion): CrossEntropyLoss(
            (loss_fn): CrossEntropyLoss()
          )
        )
      )
    )
  )
)
[32m2021-03-04T04:28:11 | mmf.utils.general: [0mTotal Parameters: 247780354. Trained Parameters: 247780354
[32m2021-03-04T04:28:11 | mmf.trainers.core.training_loop: [0mStarting training...
…
[5m[31mWARNING[0m [32m2021-03-04T18:25:57 | py.warnings: [0m/home2/sagarsj42/git-clone/mmf/mmf/utils/distributed.py:310: UserWarning: cfg.pretty() is deprecated and will be removed in a future version.
Use OmegaConf.to_yaml(cfg)

  builtin_warn(*args, **kwargs)

[32m2021-03-04T18:25:57 | mmf.trainers.mmf_trainer: [0m===== Model =====
[32m2021-03-04T18:25:57 | mmf.trainers.mmf_trainer: [0mDistributedDataParallel(
  (module): MMBT(
    (model): MMBTForClassification(
      (bert): MMBTBase(
        (mmbt): MMBTModel(
          (transformer): BertModelJit(
            (embeddings): BertEmbeddingsJit(
              (word_embeddings): Embedding(30522, 768, padding_idx=0)
              (position_embeddings): Embedding(512, 768)
              (token_type_embeddings): Embedding(2, 768)
              (LayerNorm): LayerNorm((768,), eps=1e-12, elementwise_affine=True)
              (dropout): Dropout(p=0.1, inplace=False)
            )
            (encoder): BertEncoderJit(
              (layer): ModuleList(
                (0): BertLayerJit(
                  (attention): BertAttentionJit(
                    (self): BertSelfAttentionJit(
                      (query): Linear(in_features=768, out_features=768, bias=True)
                      (key): Linear(in_features=768, out_features=768, bias=True)
                      (value): Linear(in_features=768, out_features=768, bias=True)
                      (dropout): Dropout(p=0.1, inplace=False)
                    )
                    (output): BertSelfOutput(
                      (dense): Linear(in_features=768, out_features=768, bias=True)
                      (LayerNorm): LayerNorm((768,), eps=1e-12, elementwise_affine=True)
                      (dropout): Dropout(p=0.1, inplace=False)
                    )
                  )
                  (intermediate): BertIntermediate(
                    (dense): Linear(in_features=768, out_features=3072, bias=True)
                  )
                  (output): BertOutput(
                    (dense): Linear(in_features=3072, out_features=768, bias=True)
                    (LayerNorm): LayerNorm((768,), eps=1e-12, elementwise_affine=True)
                    (dropout): Dropout(p=0.1, inplace=False)
                  )
                )
                (1): BertLayerJit(
                  (attention): BertAttentionJit(
                    (self): BertSelfAttentionJit(
                      (query): Linear(in_features=768, out_features=768, bias=True)
                      (key): Linear(in_features=768, out_features=768, bias=True)
                      (value): Linear(in_features=768, out_features=768, bias=True)
                      (dropout): Dropout(p=0.1, inplace=False)
                    )
                    (output): BertSelfOutput(
                      (dense): Linear(in_features=768, out_features=768, bias=True)
                      (LayerNorm): LayerNorm((768,), eps=1e-12, elementwise_affine=True)
                      (dropout): Dropout(p=0.1, inplace=False)
                    )
                  )
                  (intermediate): BertIntermediate(
                    (dense): Linear(in_features=768, out_features=3072, bias=True)
                  )
                  (output): BertOutput(
                    (dense): Linear(in_features=3072, out_features=768, bias=True)
                    (LayerNorm): LayerNorm((768,), eps=1e-12, elementwise_affine=True)
                    (dropout): Dropout(p=0.1, inplace=False)
                  )
                )
                (2): BertLayerJit(
                  (attention): BertAttentionJit(
                    (self): BertSelfAttentionJit(
                      (query): Linear(in_features=768, out_features=768, bias=True)
                      (key): Linear(in_features=768, out_features=768, bias=True)
                      (value): Linear(in_features=768, out_features=768, bias=True)
                      (dropout): Dropout(p=0.1, inplace=False)
                    )
                    (output): BertSelfOutput(
                      (dense): Linear(in_features=768, out_features=768, bias=True)
                      (LayerNorm): LayerNorm((768,), eps=1e-12, elementwise_affine=True)
                      (dropout): Dropout(p=0.1, inplace=False)
                    )
                  )
                  (intermediate): BertIntermediate(
                    (dense): Linear(in_features=768, out_features=3072, bias=True)
                  )
                  (output): BertOutput(
                    (dense): Linear(in_features=3072, out_features=768, bias=True)
                    (LayerNorm): LayerNorm((768,), eps=1e-12, elementwise_affine=True)
                    (dropout): Dropout(p=0.1, inplace=False)
                  )
                )
                (3): BertLayerJit(
                  (attention): BertAttentionJit(
                    (self): BertSelfAttentionJit(
                      (query): Linear(in_features=768, out_features=768, bias=True)
                      (key): Linear(in_features=768, out_features=768, bias=True)
                      (value): Linear(in_features=768, out_features=768, bias=True)
                      (dropout): Dropout(p=0.1, inplace=False)
                    )
                    (output): BertSelfOutput(
                      (dense): Linear(in_features=768, out_features=768, bias=True)
                      (LayerNorm): LayerNorm((768,), eps=1e-12, elementwise_affine=True)
                      (dropout): Dropout(p=0.1, inplace=False)
                    )
                  )
                  (intermediate): BertIntermediate(
                    (dense): Linear(in_features=768, out_features=3072, bias=True)
                  )
                  (output): BertOutput(
                    (dense): Linear(in_features=3072, out_features=768, bias=True)
                    (LayerNorm): LayerNorm((768,), eps=1e-12, elementwise_affine=True)
                    (dropout): Dropout(p=0.1, inplace=False)
                  )
                )
                (4): BertLayerJit(
                  (attention): BertAttentionJit(
                    (self): BertSelfAttentionJit(
                      (query): Linear(in_features=768, out_features=768, bias=True)
                      (key): Linear(in_features=768, out_features=768, bias=True)
                      (value): Linear(in_features=768, out_features=768, bias=True)
                      (dropout): Dropout(p=0.1, inplace=False)
                    )
                    (output): BertSelfOutput(
                      (dense): Linear(in_features=768, out_features=768, bias=True)
                      (LayerNorm): LayerNorm((768,), eps=1e-12, elementwise_affine=True)
                      (dropout): Dropout(p=0.1, inplace=False)
                    )
                  )
                  (intermediate): BertIntermediate(
                    (dense): Linear(in_features=768, out_features=3072, bias=True)
                  )
                  (output): BertOutput(
                    (dense): Linear(in_features=3072, out_features=768, bias=True)
                    (LayerNorm): LayerNorm((768,), eps=1e-12, elementwise_affine=True)
                    (dropout): Dropout(p=0.1, inplace=False)
                  )
                )
                (5): BertLayerJit(
                  (attention): BertAttentionJit(
                    (self): BertSelfAttentionJit(
                      (query): Linear(in_features=768, out_features=768, bias=True)
                      (key): Linear(in_features=768, out_features=768, bias=True)
                      (value): Linear(in_features=768, out_features=768, bias=True)
                      (dropout): Dropout(p=0.1, inplace=False)
                    )
                    (output): BertSelfOutput(
                      (dense): Linear(in_features=768, out_features=768, bias=True)
                      (LayerNorm): LayerNorm((768,), eps=1e-12, elementwise_affine=True)
                      (dropout): Dropout(p=0.1, inplace=False)
                    )
                  )
                  (intermediate): BertIntermediate(
                    (dense): Linear(in_features=768, out_features=3072, bias=True)
                  )
                  (output): BertOutput(
                    (dense): Linear(in_features=3072, out_features=768, bias=True)
                    (LayerNorm): LayerNorm((768,), eps=1e-12, elementwise_affine=True)
                    (dropout): Dropout(p=0.1, inplace=False)
                  )
                )
                (6): BertLayerJit(
                  (attention): BertAttentionJit(
                    (self): BertSelfAttentionJit(
                      (query): Linear(in_features=768, out_features=768, bias=True)
                      (key): Linear(in_features=768, out_features=768, bias=True)
                      (value): Linear(in_features=768, out_features=768, bias=True)
                      (dropout): Dropout(p=0.1, inplace=False)
                    )
                    (output): BertSelfOutput(
                      (dense): Linear(in_features=768, out_features=768, bias=True)
                      (LayerNorm): LayerNorm((768,), eps=1e-12, elementwise_affine=True)
                      (dropout): Dropout(p=0.1, inplace=False)
                    )
                  )
                  (intermediate): BertIntermediate(
                    (dense): Linear(in_features=768, out_features=3072, bias=True)
                  )
                  (output): BertOutput(
                    (dense): Linear(in_features=3072, out_features=768, bias=True)
                    (LayerNorm): LayerNorm((768,), eps=1e-12, elementwise_affine=True)
                    (dropout): Dropout(p=0.1, inplace=False)
                  )
                )
                (7): BertLayerJit(
                  (attention): BertAttentionJit(
                    (self): BertSelfAttentionJit(
                      (query): Linear(in_features=768, out_features=768, bias=True)
                      (key): Linear(in_features=768, out_features=768, bias=True)
                      (value): Linear(in_features=768, out_features=768, bias=True)
                      (dropout): Dropout(p=0.1, inplace=False)
                    )
                    (output): BertSelfOutput(
                      (dense): Linear(in_features=768, out_features=768, bias=True)
                      (LayerNorm): LayerNorm((768,), eps=1e-12, elementwise_affine=True)
                      (dropout): Dropout(p=0.1, inplace=False)
                    )
                  )
                  (intermediate): BertIntermediate(
                    (dense): Linear(in_features=768, out_features=3072, bias=True)
                  )
                  (output): BertOutput(
                    (dense): Linear(in_features=3072, out_features=768, bias=True)
                    (LayerNorm): LayerNorm((768,), eps=1e-12, elementwise_affine=True)
                    (dropout): Dropout(p=0.1, inplace=False)
                  )
                )
                (8): BertLayerJit(
                  (attention): BertAttentionJit(
                    (self): BertSelfAttentionJit(
                      (query): Linear(in_features=768, out_features=768, bias=True)
                      (key): Linear(in_features=768, out_features=768, bias=True)
                      (value): Linear(in_features=768, out_features=768, bias=True)
                      (dropout): Dropout(p=0.1, inplace=False)
                    )
                    (output): BertSelfOutput(
                      (dense): Linear(in_features=768, out_features=768, bias=True)
                      (LayerNorm): LayerNorm((768,), eps=1e-12, elementwise_affine=True)
                      (dropout): Dropout(p=0.1, inplace=False)
                    )
                  )
                  (intermediate): BertIntermediate(
                    (dense): Linear(in_features=768, out_features=3072, bias=True)
                  )
                  (output): BertOutput(
                    (dense): Linear(in_features=3072, out_features=768, bias=True)
                    (LayerNorm): LayerNorm((768,), eps=1e-12, elementwise_affine=True)
                    (dropout): Dropout(p=0.1, inplace=False)
                  )
                )
                (9): BertLayerJit(
                  (attention): BertAttentionJit(
                    (self): BertSelfAttentionJit(
                      (query): Linear(in_features=768, out_features=768, bias=True)
                      (key): Linear(in_features=768, out_features=768, bias=True)
                      (value): Linear(in_features=768, out_features=768, bias=True)
                      (dropout): Dropout(p=0.1, inplace=False)
                    )
                    (output): BertSelfOutput(
                      (dense): Linear(in_features=768, out_features=768, bias=True)
                      (LayerNorm): LayerNorm((768,), eps=1e-12, elementwise_affine=True)
                      (dropout): Dropout(p=0.1, inplace=False)
                    )
                  )
                  (intermediate): BertIntermediate(
                    (dense): Linear(in_features=768, out_features=3072, bias=True)
                  )
                  (output): BertOutput(
                    (dense): Linear(in_features=3072, out_features=768, bias=True)
                    (LayerNorm): LayerNorm((768,), eps=1e-12, elementwise_affine=True)
                    (dropout): Dropout(p=0.1, inplace=False)
                  )
                )
                (10): BertLayerJit(
                  (attention): BertAttentionJit(
                    (self): BertSelfAttentionJit(
                      (query): Linear(in_features=768, out_features=768, bias=True)
                      (key): Linear(in_features=768, out_features=768, bias=True)
                      (value): Linear(in_features=768, out_features=768, bias=True)
                      (dropout): Dropout(p=0.1, inplace=False)
                    )
                    (output): BertSelfOutput(
                      (dense): Linear(in_features=768, out_features=768, bias=True)
                      (LayerNorm): LayerNorm((768,), eps=1e-12, elementwise_affine=True)
                      (dropout): Dropout(p=0.1, inplace=False)
                    )
                  )
                  (intermediate): BertIntermediate(
                    (dense): Linear(in_features=768, out_features=3072, bias=True)
                  )
                  (output): BertOutput(
                    (dense): Linear(in_features=3072, out_features=768, bias=True)
                    (LayerNorm): LayerNorm((768,), eps=1e-12, elementwise_affine=True)
                    (dropout): Dropout(p=0.1, inplace=False)
                  )
                )
                (11): BertLayerJit(
                  (attention): BertAttentionJit(
                    (self): BertSelfAttentionJit(
                      (query): Linear(in_features=768, out_features=768, bias=True)
                      (key): Linear(in_features=768, out_features=768, bias=True)
                      (value): Linear(in_features=768, out_features=768, bias=True)
                      (dropout): Dropout(p=0.1, inplace=False)
                    )
                    (output): BertSelfOutput(
                      (dense): Linear(in_features=768, out_features=768, bias=True)
                      (LayerNorm): LayerNorm((768,), eps=1e-12, elementwise_affine=True)
                      (dropout): Dropout(p=0.1, inplace=False)
                    )
                  )
                  (intermediate): BertIntermediate(
                    (dense): Linear(in_features=768, out_features=3072, bias=True)
                  )
                  (output): BertOutput(
                    (dense): Linear(in_features=3072, out_features=768, bias=True)
                    (LayerNorm): LayerNorm((768,), eps=1e-12, elementwise_affine=True)
                    (dropout): Dropout(p=0.1, inplace=False)
                  )
                )
              )
            )
            (pooler): BertPooler(
              (dense): Linear(in_features=768, out_features=768, bias=True)
              (activation): Tanh()
            )
          )
          (modal_encoder): ModalEmbeddings(
            (encoder): FinetuneFasterRcnnFpnFc7(
              (lc): Linear(in_features=2048, out_features=2048, bias=True)
            )
            (proj_embeddings): Linear(in_features=2048, out_features=768, bias=True)
            (position_embeddings): Embedding(512, 768)
            (token_type_embeddings): Embedding(2, 768)
            (word_embeddings): Embedding(30522, 768, padding_idx=0)
            (LayerNorm): LayerNorm((768,), eps=1e-12, elementwise_affine=True)
            (dropout): Dropout(p=0.1, inplace=False)
          )
        )
      )
      (dropout): Dropout(p=0.1, inplace=False)
      (classifier): Sequential(
        (0): BertPredictionHeadTransform(
          (dense): Linear(in_features=768, out_features=768, bias=True)
          (LayerNorm): LayerNorm((768,), eps=1e-12, elementwise_affine=True)
        )
        (1): Linear(in_features=768, out_features=2, bias=True)
      )
    )
    (losses): Losses(
      (losses): ModuleList(
        (0): MMFLoss(
          (loss_criterion): CrossEntropyLoss(
            (loss_fn): CrossEntropyLoss()
          )
        )
      )
    )
  )
)
[32m2021-03-04T18:25:57 | mmf.utils.general: [0mTotal Parameters: 115845890. Trained Parameters: 115845890
[32m2021-03-04T18:25:57 | mmf.trainers.core.training_loop: [0mStarting training...
…
[5m[31mWARNING[0m [32m2021-03-04T20:47:48 | py.warnings: [0m/home2/sagarsj42/git-clone/mmf/mmf/utils/distributed.py:310: UserWarning: cfg.pretty() is deprecated and will be removed in a future version.
Use OmegaConf.to_yaml(cfg)

  builtin_warn(*args, **kwargs)

[32m2021-03-04T20:47:56 | mmf.trainers.mmf_trainer: [0m===== Model =====
[32m2021-03-04T20:47:56 | mmf.trainers.mmf_trainer: [0mDistributedDataParallel(
  (module): MMBT(
    (model): MMBTForClassification(
      (bert): MMBTBase(
        (mmbt): MMBTModel(
          (transformer): BertModelJit(
            (embeddings): BertEmbeddingsJit(
              (word_embeddings): Embedding(30522, 768, padding_idx=0)
              (position_embeddings): Embedding(512, 768)
              (token_type_embeddings): Embedding(2, 768)
              (LayerNorm): LayerNorm((768,), eps=1e-12, elementwise_affine=True)
              (dropout): Dropout(p=0.1, inplace=False)
            )
            (encoder): BertEncoderJit(
              (layer): ModuleList(
                (0): BertLayerJit(
                  (attention): BertAttentionJit(
                    (self): BertSelfAttentionJit(
                      (query): Linear(in_features=768, out_features=768, bias=True)
                      (key): Linear(in_features=768, out_features=768, bias=True)
                      (value): Linear(in_features=768, out_features=768, bias=True)
                      (dropout): Dropout(p=0.1, inplace=False)
                    )
                    (output): BertSelfOutput(
                      (dense): Linear(in_features=768, out_features=768, bias=True)
                      (LayerNorm): LayerNorm((768,), eps=1e-12, elementwise_affine=True)
                      (dropout): Dropout(p=0.1, inplace=False)
                    )
                  )
                  (intermediate): BertIntermediate(
                    (dense): Linear(in_features=768, out_features=3072, bias=True)
                  )
                  (output): BertOutput(
                    (dense): Linear(in_features=3072, out_features=768, bias=True)
                    (LayerNorm): LayerNorm((768,), eps=1e-12, elementwise_affine=True)
                    (dropout): Dropout(p=0.1, inplace=False)
                  )
                )
                (1): BertLayerJit(
                  (attention): BertAttentionJit(
                    (self): BertSelfAttentionJit(
                      (query): Linear(in_features=768, out_features=768, bias=True)
                      (key): Linear(in_features=768, out_features=768, bias=True)
                      (value): Linear(in_features=768, out_features=768, bias=True)
                      (dropout): Dropout(p=0.1, inplace=False)
                    )
                    (output): BertSelfOutput(
                      (dense): Linear(in_features=768, out_features=768, bias=True)
                      (LayerNorm): LayerNorm((768,), eps=1e-12, elementwise_affine=True)
                      (dropout): Dropout(p=0.1, inplace=False)
                    )
                  )
                  (intermediate): BertIntermediate(
                    (dense): Linear(in_features=768, out_features=3072, bias=True)
                  )
                  (output): BertOutput(
                    (dense): Linear(in_features=3072, out_features=768, bias=True)
                    (LayerNorm): LayerNorm((768,), eps=1e-12, elementwise_affine=True)
                    (dropout): Dropout(p=0.1, inplace=False)
                  )
                )
                (2): BertLayerJit(
                  (attention): BertAttentionJit(
                    (self): BertSelfAttentionJit(
                      (query): Linear(in_features=768, out_features=768, bias=True)
                      (key): Linear(in_features=768, out_features=768, bias=True)
                      (value): Linear(in_features=768, out_features=768, bias=True)
                      (dropout): Dropout(p=0.1, inplace=False)
                    )
                    (output): BertSelfOutput(
                      (dense): Linear(in_features=768, out_features=768, bias=True)
                      (LayerNorm): LayerNorm((768,), eps=1e-12, elementwise_affine=True)
                      (dropout): Dropout(p=0.1, inplace=False)
                    )
                  )
                  (intermediate): BertIntermediate(
                    (dense): Linear(in_features=768, out_features=3072, bias=True)
                  )
                  (output): BertOutput(
                    (dense): Linear(in_features=3072, out_features=768, bias=True)
                    (LayerNorm): LayerNorm((768,), eps=1e-12, elementwise_affine=True)
                    (dropout): Dropout(p=0.1, inplace=False)
                  )
                )
                (3): BertLayerJit(
                  (attention): BertAttentionJit(
                    (self): BertSelfAttentionJit(
                      (query): Linear(in_features=768, out_features=768, bias=True)
                      (key): Linear(in_features=768, out_features=768, bias=True)
                      (value): Linear(in_features=768, out_features=768, bias=True)
                      (dropout): Dropout(p=0.1, inplace=False)
                    )
                    (output): BertSelfOutput(
                      (dense): Linear(in_features=768, out_features=768, bias=True)
                      (LayerNorm): LayerNorm((768,), eps=1e-12, elementwise_affine=True)
                      (dropout): Dropout(p=0.1, inplace=False)
                    )
                  )
                  (intermediate): BertIntermediate(
                    (dense): Linear(in_features=768, out_features=3072, bias=True)
                  )
                  (output): BertOutput(
                    (dense): Linear(in_features=3072, out_features=768, bias=True)
                    (LayerNorm): LayerNorm((768,), eps=1e-12, elementwise_affine=True)
                    (dropout): Dropout(p=0.1, inplace=False)
                  )
                )
                (4): BertLayerJit(
                  (attention): BertAttentionJit(
                    (self): BertSelfAttentionJit(
                      (query): Linear(in_features=768, out_features=768, bias=True)
                      (key): Linear(in_features=768, out_features=768, bias=True)
                      (value): Linear(in_features=768, out_features=768, bias=True)
                      (dropout): Dropout(p=0.1, inplace=False)
                    )
                    (output): BertSelfOutput(
                      (dense): Linear(in_features=768, out_features=768, bias=True)
                      (LayerNorm): LayerNorm((768,), eps=1e-12, elementwise_affine=True)
                      (dropout): Dropout(p=0.1, inplace=False)
                    )
                  )
                  (intermediate): BertIntermediate(
                    (dense): Linear(in_features=768, out_features=3072, bias=True)
                  )
                  (output): BertOutput(
                    (dense): Linear(in_features=3072, out_features=768, bias=True)
                    (LayerNorm): LayerNorm((768,), eps=1e-12, elementwise_affine=True)
                    (dropout): Dropout(p=0.1, inplace=False)
                  )
                )
                (5): BertLayerJit(
                  (attention): BertAttentionJit(
                    (self): BertSelfAttentionJit(
                      (query): Linear(in_features=768, out_features=768, bias=True)
                      (key): Linear(in_features=768, out_features=768, bias=True)
                      (value): Linear(in_features=768, out_features=768, bias=True)
                      (dropout): Dropout(p=0.1, inplace=False)
                    )
                    (output): BertSelfOutput(
                      (dense): Linear(in_features=768, out_features=768, bias=True)
                      (LayerNorm): LayerNorm((768,), eps=1e-12, elementwise_affine=True)
                      (dropout): Dropout(p=0.1, inplace=False)
                    )
                  )
                  (intermediate): BertIntermediate(
                    (dense): Linear(in_features=768, out_features=3072, bias=True)
                  )
                  (output): BertOutput(
                    (dense): Linear(in_features=3072, out_features=768, bias=True)
                    (LayerNorm): LayerNorm((768,), eps=1e-12, elementwise_affine=True)
                    (dropout): Dropout(p=0.1, inplace=False)
                  )
                )
                (6): BertLayerJit(
                  (attention): BertAttentionJit(
                    (self): BertSelfAttentionJit(
                      (query): Linear(in_features=768, out_features=768, bias=True)
                      (key): Linear(in_features=768, out_features=768, bias=True)
                      (value): Linear(in_features=768, out_features=768, bias=True)
                      (dropout): Dropout(p=0.1, inplace=False)
                    )
                    (output): BertSelfOutput(
                      (dense): Linear(in_features=768, out_features=768, bias=True)
                      (LayerNorm): LayerNorm((768,), eps=1e-12, elementwise_affine=True)
                      (dropout): Dropout(p=0.1, inplace=False)
                    )
                  )
                  (intermediate): BertIntermediate(
                    (dense): Linear(in_features=768, out_features=3072, bias=True)
                  )
                  (output): BertOutput(
                    (dense): Linear(in_features=3072, out_features=768, bias=True)
                    (LayerNorm): LayerNorm((768,), eps=1e-12, elementwise_affine=True)
                    (dropout): Dropout(p=0.1, inplace=False)
                  )
                )
                (7): BertLayerJit(
                  (attention): BertAttentionJit(
                    (self): BertSelfAttentionJit(
                      (query): Linear(in_features=768, out_features=768, bias=True)
                      (key): Linear(in_features=768, out_features=768, bias=True)
                      (value): Linear(in_features=768, out_features=768, bias=True)
                      (dropout): Dropout(p=0.1, inplace=False)
                    )
                    (output): BertSelfOutput(
                      (dense): Linear(in_features=768, out_features=768, bias=True)
                      (LayerNorm): LayerNorm((768,), eps=1e-12, elementwise_affine=True)
                      (dropout): Dropout(p=0.1, inplace=False)
                    )
                  )
                  (intermediate): BertIntermediate(
                    (dense): Linear(in_features=768, out_features=3072, bias=True)
                  )
                  (output): BertOutput(
                    (dense): Linear(in_features=3072, out_features=768, bias=True)
                    (LayerNorm): LayerNorm((768,), eps=1e-12, elementwise_affine=True)
                    (dropout): Dropout(p=0.1, inplace=False)
                  )
                )
                (8): BertLayerJit(
                  (attention): BertAttentionJit(
                    (self): BertSelfAttentionJit(
                      (query): Linear(in_features=768, out_features=768, bias=True)
                      (key): Linear(in_features=768, out_features=768, bias=True)
                      (value): Linear(in_features=768, out_features=768, bias=True)
                      (dropout): Dropout(p=0.1, inplace=False)
                    )
                    (output): BertSelfOutput(
                      (dense): Linear(in_features=768, out_features=768, bias=True)
                      (LayerNorm): LayerNorm((768,), eps=1e-12, elementwise_affine=True)
                      (dropout): Dropout(p=0.1, inplace=False)
                    )
                  )
                  (intermediate): BertIntermediate(
                    (dense): Linear(in_features=768, out_features=3072, bias=True)
                  )
                  (output): BertOutput(
                    (dense): Linear(in_features=3072, out_features=768, bias=True)
                    (LayerNorm): LayerNorm((768,), eps=1e-12, elementwise_affine=True)
                    (dropout): Dropout(p=0.1, inplace=False)
                  )
                )
                (9): BertLayerJit(
                  (attention): BertAttentionJit(
                    (self): BertSelfAttentionJit(
                      (query): Linear(in_features=768, out_features=768, bias=True)
                      (key): Linear(in_features=768, out_features=768, bias=True)
                      (value): Linear(in_features=768, out_features=768, bias=True)
                      (dropout): Dropout(p=0.1, inplace=False)
                    )
                    (output): BertSelfOutput(
                      (dense): Linear(in_features=768, out_features=768, bias=True)
                      (LayerNorm): LayerNorm((768,), eps=1e-12, elementwise_affine=True)
                      (dropout): Dropout(p=0.1, inplace=False)
                    )
                  )
                  (intermediate): BertIntermediate(
                    (dense): Linear(in_features=768, out_features=3072, bias=True)
                  )
                  (output): BertOutput(
                    (dense): Linear(in_features=3072, out_features=768, bias=True)
                    (LayerNorm): LayerNorm((768,), eps=1e-12, elementwise_affine=True)
                    (dropout): Dropout(p=0.1, inplace=False)
                  )
                )
                (10): BertLayerJit(
                  (attention): BertAttentionJit(
                    (self): BertSelfAttentionJit(
                      (query): Linear(in_features=768, out_features=768, bias=True)
                      (key): Linear(in_features=768, out_features=768, bias=True)
                      (value): Linear(in_features=768, out_features=768, bias=True)
                      (dropout): Dropout(p=0.1, inplace=False)
                    )
                    (output): BertSelfOutput(
                      (dense): Linear(in_features=768, out_features=768, bias=True)
                      (LayerNorm): LayerNorm((768,), eps=1e-12, elementwise_affine=True)
                      (dropout): Dropout(p=0.1, inplace=False)
                    )
                  )
                  (intermediate): BertIntermediate(
                    (dense): Linear(in_features=768, out_features=3072, bias=True)
                  )
                  (output): BertOutput(
                    (dense): Linear(in_features=3072, out_features=768, bias=True)
                    (LayerNorm): LayerNorm((768,), eps=1e-12, elementwise_affine=True)
                    (dropout): Dropout(p=0.1, inplace=False)
                  )
                )
                (11): BertLayerJit(
                  (attention): BertAttentionJit(
                    (self): BertSelfAttentionJit(
                      (query): Linear(in_features=768, out_features=768, bias=True)
                      (key): Linear(in_features=768, out_features=768, bias=True)
                      (value): Linear(in_features=768, out_features=768, bias=True)
                      (dropout): Dropout(p=0.1, inplace=False)
                    )
                    (output): BertSelfOutput(
                      (dense): Linear(in_features=768, out_features=768, bias=True)
                      (LayerNorm): LayerNorm((768,), eps=1e-12, elementwise_affine=True)
                      (dropout): Dropout(p=0.1, inplace=False)
                    )
                  )
                  (intermediate): BertIntermediate(
                    (dense): Linear(in_features=768, out_features=3072, bias=True)
                  )
                  (output): BertOutput(
                    (dense): Linear(in_features=3072, out_features=768, bias=True)
                    (LayerNorm): LayerNorm((768,), eps=1e-12, elementwise_affine=True)
                    (dropout): Dropout(p=0.1, inplace=False)
                  )
                )
              )
            )
            (pooler): BertPooler(
              (dense): Linear(in_features=768, out_features=768, bias=True)
              (activation): Tanh()
            )
          )
          (modal_encoder): ModalEmbeddings(
            (encoder): ResNet152ImageEncoder(
              (model): Sequential(
                (0): Conv2d(3, 64, kernel_size=(7, 7), stride=(2, 2), padding=(3, 3), bias=False)
                (1): BatchNorm2d(64, eps=1e-05, momentum=0.1, affine=True, track_running_stats=True)
                (2): ReLU(inplace=True)
                (3): MaxPool2d(kernel_size=3, stride=2, padding=1, dilation=1, ceil_mode=False)
                (4): Sequential(
                  (0): Bottleneck(
                    (conv1): Conv2d(64, 64, kernel_size=(1, 1), stride=(1, 1), bias=False)
                    (bn1): BatchNorm2d(64, eps=1e-05, momentum=0.1, affine=True, track_running_stats=True)
                    (conv2): Conv2d(64, 64, kernel_size=(3, 3), stride=(1, 1), padding=(1, 1), bias=False)
                    (bn2): BatchNorm2d(64, eps=1e-05, momentum=0.1, affine=True, track_running_stats=True)
                    (conv3): Conv2d(64, 256, kernel_size=(1, 1), stride=(1, 1), bias=False)
                    (bn3): BatchNorm2d(256, eps=1e-05, momentum=0.1, affine=True, track_running_stats=True)
                    (relu): ReLU(inplace=True)
                    (downsample): Sequential(
                      (0): Conv2d(64, 256, kernel_size=(1, 1), stride=(1, 1), bias=False)
                      (1): BatchNorm2d(256, eps=1e-05, momentum=0.1, affine=True, track_running_stats=True)
                    )
                  )
                  (1): Bottleneck(
                    (conv1): Conv2d(256, 64, kernel_size=(1, 1), stride=(1, 1), bias=False)
                    (bn1): BatchNorm2d(64, eps=1e-05, momentum=0.1, affine=True, track_running_stats=True)
                    (conv2): Conv2d(64, 64, kernel_size=(3, 3), stride=(1, 1), padding=(1, 1), bias=False)
                    (bn2): BatchNorm2d(64, eps=1e-05, momentum=0.1, affine=True, track_running_stats=True)
                    (conv3): Conv2d(64, 256, kernel_size=(1, 1), stride=(1, 1), bias=False)
                    (bn3): BatchNorm2d(256, eps=1e-05, momentum=0.1, affine=True, track_running_stats=True)
                    (relu): ReLU(inplace=True)
                  )
                  (2): Bottleneck(
                    (conv1): Conv2d(256, 64, kernel_size=(1, 1), stride=(1, 1), bias=False)
                    (bn1): BatchNorm2d(64, eps=1e-05, momentum=0.1, affine=True, track_running_stats=True)
                    (conv2): Conv2d(64, 64, kernel_size=(3, 3), stride=(1, 1), padding=(1, 1), bias=False)
                    (bn2): BatchNorm2d(64, eps=1e-05, momentum=0.1, affine=True, track_running_stats=True)
                    (conv3): Conv2d(64, 256, kernel_size=(1, 1), stride=(1, 1), bias=False)
                    (bn3): BatchNorm2d(256, eps=1e-05, momentum=0.1, affine=True, track_running_stats=True)
                    (relu): ReLU(inplace=True)
                  )
                )
                (5): Sequential(
                  (0): Bottleneck(
                    (conv1): Conv2d(256, 128, kernel_size=(1, 1), stride=(1, 1), bias=False)
                    (bn1): BatchNorm2d(128, eps=1e-05, momentum=0.1, affine=True, track_running_stats=True)
                    (conv2): Conv2d(128, 128, kernel_size=(3, 3), stride=(2, 2), padding=(1, 1), bias=False)
                    (bn2): BatchNorm2d(128, eps=1e-05, momentum=0.1, affine=True, track_running_stats=True)
                    (conv3): Conv2d(128, 512, kernel_size=(1, 1), stride=(1, 1), bias=False)
                    (bn3): BatchNorm2d(512, eps=1e-05, momentum=0.1, affine=True, track_running_stats=True)
                    (relu): ReLU(inplace=True)
                    (downsample): Sequential(
                      (0): Conv2d(256, 512, kernel_size=(1, 1), stride=(2, 2), bias=False)
                      (1): BatchNorm2d(512, eps=1e-05, momentum=0.1, affine=True, track_running_stats=True)
                    )
                  )
                  (1): Bottleneck(
                    (conv1): Conv2d(512, 128, kernel_size=(1, 1), stride=(1, 1), bias=False)
                    (bn1): BatchNorm2d(128, eps=1e-05, momentum=0.1, affine=True, track_running_stats=True)
                    (conv2): Conv2d(128, 128, kernel_size=(3, 3), stride=(1, 1), padding=(1, 1), bias=False)
                    (bn2): BatchNorm2d(128, eps=1e-05, momentum=0.1, affine=True, track_running_stats=True)
                    (conv3): Conv2d(128, 512, kernel_size=(1, 1), stride=(1, 1), bias=False)
                    (bn3): BatchNorm2d(512, eps=1e-05, momentum=0.1, affine=True, track_running_stats=True)
                    (relu): ReLU(inplace=True)
                  )
                  (2): Bottleneck(
                    (conv1): Conv2d(512, 128, kernel_size=(1, 1), stride=(1, 1), bias=False)
                    (bn1): BatchNorm2d(128, eps=1e-05, momentum=0.1, affine=True, track_running_stats=True)
                    (conv2): Conv2d(128, 128, kernel_size=(3, 3), stride=(1, 1), padding=(1, 1), bias=False)
                    (bn2): BatchNorm2d(128, eps=1e-05, momentum=0.1, affine=True, track_running_stats=True)
                    (conv3): Conv2d(128, 512, kernel_size=(1, 1), stride=(1, 1), bias=False)
                    (bn3): BatchNorm2d(512, eps=1e-05, momentum=0.1, affine=True, track_running_stats=True)
                    (relu): ReLU(inplace=True)
                  )
                  (3): Bottleneck(
                    (conv1): Conv2d(512, 128, kernel_size=(1, 1), stride=(1, 1), bias=False)
                    (bn1): BatchNorm2d(128, eps=1e-05, momentum=0.1, affine=True, track_running_stats=True)
                    (conv2): Conv2d(128, 128, kernel_size=(3, 3), stride=(1, 1), padding=(1, 1), bias=False)
                    (bn2): BatchNorm2d(128, eps=1e-05, momentum=0.1, affine=True, track_running_stats=True)
                    (conv3): Conv2d(128, 512, kernel_size=(1, 1), stride=(1, 1), bias=False)
                    (bn3): BatchNorm2d(512, eps=1e-05, momentum=0.1, affine=True, track_running_stats=True)
                    (relu): ReLU(inplace=True)
                  )
                  (4): Bottleneck(
                    (conv1): Conv2d(512, 128, kernel_size=(1, 1), stride=(1, 1), bias=False)
                    (bn1): BatchNorm2d(128, eps=1e-05, momentum=0.1, affine=True, track_running_stats=True)
                    (conv2): Conv2d(128, 128, kernel_size=(3, 3), stride=(1, 1), padding=(1, 1), bias=False)
                    (bn2): BatchNorm2d(128, eps=1e-05, momentum=0.1, affine=True, track_running_stats=True)
                    (conv3): Conv2d(128, 512, kernel_size=(1, 1), stride=(1, 1), bias=False)
                    (bn3): BatchNorm2d(512, eps=1e-05, momentum=0.1, affine=True, track_running_stats=True)
                    (relu): ReLU(inplace=True)
                  )
                  (5): Bottleneck(
                    (conv1): Conv2d(512, 128, kernel_size=(1, 1), stride=(1, 1), bias=False)
                    (bn1): BatchNorm2d(128, eps=1e-05, momentum=0.1, affine=True, track_running_stats=True)
                    (conv2): Conv2d(128, 128, kernel_size=(3, 3), stride=(1, 1), padding=(1, 1), bias=False)
                    (bn2): BatchNorm2d(128, eps=1e-05, momentum=0.1, affine=True, track_running_stats=True)
                    (conv3): Conv2d(128, 512, kernel_size=(1, 1), stride=(1, 1), bias=False)
                    (bn3): BatchNorm2d(512, eps=1e-05, momentum=0.1, affine=True, track_running_stats=True)
                    (relu): ReLU(inplace=True)
                  )
                  (6): Bottleneck(
                    (conv1): Conv2d(512, 128, kernel_size=(1, 1), stride=(1, 1), bias=False)
                    (bn1): BatchNorm2d(128, eps=1e-05, momentum=0.1, affine=True, track_running_stats=True)
                    (conv2): Conv2d(128, 128, kernel_size=(3, 3), stride=(1, 1), padding=(1, 1), bias=False)
                    (bn2): BatchNorm2d(128, eps=1e-05, momentum=0.1, affine=True, track_running_stats=True)
                    (conv3): Conv2d(128, 512, kernel_size=(1, 1), stride=(1, 1), bias=False)
                    (bn3): BatchNorm2d(512, eps=1e-05, momentum=0.1, affine=True, track_running_stats=True)
                    (relu): ReLU(inplace=True)
                  )
                  (7): Bottleneck(
                    (conv1): Conv2d(512, 128, kernel_size=(1, 1), stride=(1, 1), bias=False)
                    (bn1): BatchNorm2d(128, eps=1e-05, momentum=0.1, affine=True, track_running_stats=True)
                    (conv2): Conv2d(128, 128, kernel_size=(3, 3), stride=(1, 1), padding=(1, 1), bias=False)
                    (bn2): BatchNorm2d(128, eps=1e-05, momentum=0.1, affine=True, track_running_stats=True)
                    (conv3): Conv2d(128, 512, kernel_size=(1, 1), stride=(1, 1), bias=False)
                    (bn3): BatchNorm2d(512, eps=1e-05, momentum=0.1, affine=True, track_running_stats=True)
                    (relu): ReLU(inplace=True)
                  )
                )
                (6): Sequential(
                  (0): Bottleneck(
                    (conv1): Conv2d(512, 256, kernel_size=(1, 1), stride=(1, 1), bias=False)
                    (bn1): BatchNorm2d(256, eps=1e-05, momentum=0.1, affine=True, track_running_stats=True)
                    (conv2): Conv2d(256, 256, kernel_size=(3, 3), stride=(2, 2), padding=(1, 1), bias=False)
                    (bn2): BatchNorm2d(256, eps=1e-05, momentum=0.1, affine=True, track_running_stats=True)
                    (conv3): Conv2d(256, 1024, kernel_size=(1, 1), stride=(1, 1), bias=False)
                    (bn3): BatchNorm2d(1024, eps=1e-05, momentum=0.1, affine=True, track_running_stats=True)
                    (relu): ReLU(inplace=True)
                    (downsample): Sequential(
                      (0): Conv2d(512, 1024, kernel_size=(1, 1), stride=(2, 2), bias=False)
                      (1): BatchNorm2d(1024, eps=1e-05, momentum=0.1, affine=True, track_running_stats=True)
                    )
                  )
                  (1): Bottleneck(
                    (conv1): Conv2d(1024, 256, kernel_size=(1, 1), stride=(1, 1), bias=False)
                    (bn1): BatchNorm2d(256, eps=1e-05, momentum=0.1, affine=True, track_running_stats=True)
                    (conv2): Conv2d(256, 256, kernel_size=(3, 3), stride=(1, 1), padding=(1, 1), bias=False)
                    (bn2): BatchNorm2d(256, eps=1e-05, momentum=0.1, affine=True, track_running_stats=True)
                    (conv3): Conv2d(256, 1024, kernel_size=(1, 1), stride=(1, 1), bias=False)
                    (bn3): BatchNorm2d(1024, eps=1e-05, momentum=0.1, affine=True, track_running_stats=True)
                    (relu): ReLU(inplace=True)
                  )
                  (2): Bottleneck(
                    (conv1): Conv2d(1024, 256, kernel_size=(1, 1), stride=(1, 1), bias=False)
                    (bn1): BatchNorm2d(256, eps=1e-05, momentum=0.1, affine=True, track_running_stats=True)
                    (conv2): Conv2d(256, 256, kernel_size=(3, 3), stride=(1, 1), padding=(1, 1), bias=False)
                    (bn2): BatchNorm2d(256, eps=1e-05, momentum=0.1, affine=True, track_running_stats=True)
                    (conv3): Conv2d(256, 1024, kernel_size=(1, 1), stride=(1, 1), bias=False)
                    (bn3): BatchNorm2d(1024, eps=1e-05, momentum=0.1, affine=True, track_running_stats=True)
                    (relu): ReLU(inplace=True)
                  )
                  (3): Bottleneck(
                    (conv1): Conv2d(1024, 256, kernel_size=(1, 1), stride=(1, 1), bias=False)
                    (bn1): BatchNorm2d(256, eps=1e-05, momentum=0.1, affine=True, track_running_stats=True)
                    (conv2): Conv2d(256, 256, kernel_size=(3, 3), stride=(1, 1), padding=(1, 1), bias=False)
                    (bn2): BatchNorm2d(256, eps=1e-05, momentum=0.1, affine=True, track_running_stats=True)
                    (conv3): Conv2d(256, 1024, kernel_size=(1, 1), stride=(1, 1), bias=False)
                    (bn3): BatchNorm2d(1024, eps=1e-05, momentum=0.1, affine=True, track_running_stats=True)
                    (relu): ReLU(inplace=True)
                  )
                  (4): Bottleneck(
                    (conv1): Conv2d(1024, 256, kernel_size=(1, 1), stride=(1, 1), bias=False)
                    (bn1): BatchNorm2d(256, eps=1e-05, momentum=0.1, affine=True, track_running_stats=True)
                    (conv2): Conv2d(256, 256, kernel_size=(3, 3), stride=(1, 1), padding=(1, 1), bias=False)
                    (bn2): BatchNorm2d(256, eps=1e-05, momentum=0.1, affine=True, track_running_stats=True)
                    (conv3): Conv2d(256, 1024, kernel_size=(1, 1), stride=(1, 1), bias=False)
                    (bn3): BatchNorm2d(1024, eps=1e-05, momentum=0.1, affine=True, track_running_stats=True)
                    (relu): ReLU(inplace=True)
                  )
                  (5): Bottleneck(
                    (conv1): Conv2d(1024, 256, kernel_size=(1, 1), stride=(1, 1), bias=False)
                    (bn1): BatchNorm2d(256, eps=1e-05, momentum=0.1, affine=True, track_running_stats=True)
                    (conv2): Conv2d(256, 256, kernel_size=(3, 3), stride=(1, 1), padding=(1, 1), bias=False)
                    (bn2): BatchNorm2d(256, eps=1e-05, momentum=0.1, affine=True, track_running_stats=True)
                    (conv3): Conv2d(256, 1024, kernel_size=(1, 1), stride=(1, 1), bias=False)
                    (bn3): BatchNorm2d(1024, eps=1e-05, momentum=0.1, affine=True, track_running_stats=True)
                    (relu): ReLU(inplace=True)
                  )
                  (6): Bottleneck(
                    (conv1): Conv2d(1024, 256, kernel_size=(1, 1), stride=(1, 1), bias=False)
                    (bn1): BatchNorm2d(256, eps=1e-05, momentum=0.1, affine=True, track_running_stats=True)
                    (conv2): Conv2d(256, 256, kernel_size=(3, 3), stride=(1, 1), padding=(1, 1), bias=False)
                    (bn2): BatchNorm2d(256, eps=1e-05, momentum=0.1, affine=True, track_running_stats=True)
                    (conv3): Conv2d(256, 1024, kernel_size=(1, 1), stride=(1, 1), bias=False)
                    (bn3): BatchNorm2d(1024, eps=1e-05, momentum=0.1, affine=True, track_running_stats=True)
                    (relu): ReLU(inplace=True)
                  )
                  (7): Bottleneck(
                    (conv1): Conv2d(1024, 256, kernel_size=(1, 1), stride=(1, 1), bias=False)
                    (bn1): BatchNorm2d(256, eps=1e-05, momentum=0.1, affine=True, track_running_stats=True)
                    (conv2): Conv2d(256, 256, kernel_size=(3, 3), stride=(1, 1), padding=(1, 1), bias=False)
                    (bn2): BatchNorm2d(256, eps=1e-05, momentum=0.1, affine=True, track_running_stats=True)
                    (conv3): Conv2d(256, 1024, kernel_size=(1, 1), stride=(1, 1), bias=False)
                    (bn3): BatchNorm2d(1024, eps=1e-05, momentum=0.1, affine=True, track_running_stats=True)
                    (relu): ReLU(inplace=True)
                  )
                  (8): Bottleneck(
                    (conv1): Conv2d(1024, 256, kernel_size=(1, 1), stride=(1, 1), bias=False)
                    (bn1): BatchNorm2d(256, eps=1e-05, momentum=0.1, affine=True, track_running_stats=True)
                    (conv2): Conv2d(256, 256, kernel_size=(3, 3), stride=(1, 1), padding=(1, 1), bias=False)
                    (bn2): BatchNorm2d(256, eps=1e-05, momentum=0.1, affine=True, track_running_stats=True)
                    (conv3): Conv2d(256, 1024, kernel_size=(1, 1), stride=(1, 1), bias=False)
                    (bn3): BatchNorm2d(1024, eps=1e-05, momentum=0.1, affine=True, track_running_stats=True)
                    (relu): ReLU(inplace=True)
                  )
                  (9): Bottleneck(
                    (conv1): Conv2d(1024, 256, kernel_size=(1, 1), stride=(1, 1), bias=False)
                    (bn1): BatchNorm2d(256, eps=1e-05, momentum=0.1, affine=True, track_running_stats=True)
                    (conv2): Conv2d(256, 256, kernel_size=(3, 3), stride=(1, 1), padding=(1, 1), bias=False)
                    (bn2): BatchNorm2d(256, eps=1e-05, momentum=0.1, affine=True, track_running_stats=True)
                    (conv3): Conv2d(256, 1024, kernel_size=(1, 1), stride=(1, 1), bias=False)
                    (bn3): BatchNorm2d(1024, eps=1e-05, momentum=0.1, affine=True, track_running_stats=True)
                    (relu): ReLU(inplace=True)
                  )
                  (10): Bottleneck(
                    (conv1): Conv2d(1024, 256, kernel_size=(1, 1), stride=(1, 1), bias=False)
                    (bn1): BatchNorm2d(256, eps=1e-05, momentum=0.1, affine=True, track_running_stats=True)
                    (conv2): Conv2d(256, 256, kernel_size=(3, 3), stride=(1, 1), padding=(1, 1), bias=False)
                    (bn2): BatchNorm2d(256, eps=1e-05, momentum=0.1, affine=True, track_running_stats=True)
                    (conv3): Conv2d(256, 1024, kernel_size=(1, 1), stride=(1, 1), bias=False)
                    (bn3): BatchNorm2d(1024, eps=1e-05, momentum=0.1, affine=True, track_running_stats=True)
                    (relu): ReLU(inplace=True)
                  )
                  (11): Bottleneck(
                    (conv1): Conv2d(1024, 256, kernel_size=(1, 1), stride=(1, 1), bias=False)
                    (bn1): BatchNorm2d(256, eps=1e-05, momentum=0.1, affine=True, track_running_stats=True)
                    (conv2): Conv2d(256, 256, kernel_size=(3, 3), stride=(1, 1), padding=(1, 1), bias=False)
                    (bn2): BatchNorm2d(256, eps=1e-05, momentum=0.1, affine=True, track_running_stats=True)
                    (conv3): Conv2d(256, 1024, kernel_size=(1, 1), stride=(1, 1), bias=False)
                    (bn3): BatchNorm2d(1024, eps=1e-05, momentum=0.1, affine=True, track_running_stats=True)
                    (relu): ReLU(inplace=True)
                  )
                  (12): Bottleneck(
                    (conv1): Conv2d(1024, 256, kernel_size=(1, 1), stride=(1, 1), bias=False)
                    (bn1): BatchNorm2d(256, eps=1e-05, momentum=0.1, affine=True, track_running_stats=True)
                    (conv2): Conv2d(256, 256, kernel_size=(3, 3), stride=(1, 1), padding=(1, 1), bias=False)
                    (bn2): BatchNorm2d(256, eps=1e-05, momentum=0.1, affine=True, track_running_stats=True)
                    (conv3): Conv2d(256, 1024, kernel_size=(1, 1), stride=(1, 1), bias=False)
                    (bn3): BatchNorm2d(1024, eps=1e-05, momentum=0.1, affine=True, track_running_stats=True)
                    (relu): ReLU(inplace=True)
                  )
                  (13): Bottleneck(
                    (conv1): Conv2d(1024, 256, kernel_size=(1, 1), stride=(1, 1), bias=False)
                    (bn1): BatchNorm2d(256, eps=1e-05, momentum=0.1, affine=True, track_running_stats=True)
                    (conv2): Conv2d(256, 256, kernel_size=(3, 3), stride=(1, 1), padding=(1, 1), bias=False)
                    (bn2): BatchNorm2d(256, eps=1e-05, momentum=0.1, affine=True, track_running_stats=True)
                    (conv3): Conv2d(256, 1024, kernel_size=(1, 1), stride=(1, 1), bias=False)
                    (bn3): BatchNorm2d(1024, eps=1e-05, momentum=0.1, affine=True, track_running_stats=True)
                    (relu): ReLU(inplace=True)
                  )
                  (14): Bottleneck(
                    (conv1): Conv2d(1024, 256, kernel_size=(1, 1), stride=(1, 1), bias=False)
                    (bn1): BatchNorm2d(256, eps=1e-05, momentum=0.1, affine=True, track_running_stats=True)
                    (conv2): Conv2d(256, 256, kernel_size=(3, 3), stride=(1, 1), padding=(1, 1), bias=False)
                    (bn2): BatchNorm2d(256, eps=1e-05, momentum=0.1, affine=True, track_running_stats=True)
                    (conv3): Conv2d(256, 1024, kernel_size=(1, 1), stride=(1, 1), bias=False)
                    (bn3): BatchNorm2d(1024, eps=1e-05, momentum=0.1, affine=True, track_running_stats=True)
                    (relu): ReLU(inplace=True)
                  )
                  (15): Bottleneck(
                    (conv1): Conv2d(1024, 256, kernel_size=(1, 1), stride=(1, 1), bias=False)
                    (bn1): BatchNorm2d(256, eps=1e-05, momentum=0.1, affine=True, track_running_stats=True)
                    (conv2): Conv2d(256, 256, kernel_size=(3, 3), stride=(1, 1), padding=(1, 1), bias=False)
                    (bn2): BatchNorm2d(256, eps=1e-05, momentum=0.1, affine=True, track_running_stats=True)
                    (conv3): Conv2d(256, 1024, kernel_size=(1, 1), stride=(1, 1), bias=False)
                    (bn3): BatchNorm2d(1024, eps=1e-05, momentum=0.1, affine=True, track_running_stats=True)
                    (relu): ReLU(inplace=True)
                  )
                  (16): Bottleneck(
                    (conv1): Conv2d(1024, 256, kernel_size=(1, 1), stride=(1, 1), bias=False)
                    (bn1): BatchNorm2d(256, eps=1e-05, momentum=0.1, affine=True, track_running_stats=True)
                    (conv2): Conv2d(256, 256, kernel_size=(3, 3), stride=(1, 1), padding=(1, 1), bias=False)
                    (bn2): BatchNorm2d(256, eps=1e-05, momentum=0.1, affine=True, track_running_stats=True)
                    (conv3): Conv2d(256, 1024, kernel_size=(1, 1), stride=(1, 1), bias=False)
                    (bn3): BatchNorm2d(1024, eps=1e-05, momentum=0.1, affine=True, track_running_stats=True)
                    (relu): ReLU(inplace=True)
                  )
                  (17): Bottleneck(
                    (conv1): Conv2d(1024, 256, kernel_size=(1, 1), stride=(1, 1), bias=False)
                    (bn1): BatchNorm2d(256, eps=1e-05, momentum=0.1, affine=True, track_running_stats=True)
                    (conv2): Conv2d(256, 256, kernel_size=(3, 3), stride=(1, 1), padding=(1, 1), bias=False)
                    (bn2): BatchNorm2d(256, eps=1e-05, momentum=0.1, affine=True, track_running_stats=True)
                    (conv3): Conv2d(256, 1024, kernel_size=(1, 1), stride=(1, 1), bias=False)
                    (bn3): BatchNorm2d(1024, eps=1e-05, momentum=0.1, affine=True, track_running_stats=True)
                    (relu): ReLU(inplace=True)
                  )
                  (18): Bottleneck(
                    (conv1): Conv2d(1024, 256, kernel_size=(1, 1), stride=(1, 1), bias=False)
                    (bn1): BatchNorm2d(256, eps=1e-05, momentum=0.1, affine=True, track_running_stats=True)
                    (conv2): Conv2d(256, 256, kernel_size=(3, 3), stride=(1, 1), padding=(1, 1), bias=False)
                    (bn2): BatchNorm2d(256, eps=1e-05, momentum=0.1, affine=True, track_running_stats=True)
                    (conv3): Conv2d(256, 1024, kernel_size=(1, 1), stride=(1, 1), bias=False)
                    (bn3): BatchNorm2d(1024, eps=1e-05, momentum=0.1, affine=True, track_running_stats=True)
                    (relu): ReLU(inplace=True)
                  )
                  (19): Bottleneck(
                    (conv1): Conv2d(1024, 256, kernel_size=(1, 1), stride=(1, 1), bias=False)
                    (bn1): BatchNorm2d(256, eps=1e-05, momentum=0.1, affine=True, track_running_stats=True)
                    (conv2): Conv2d(256, 256, kernel_size=(3, 3), stride=(1, 1), padding=(1, 1), bias=False)
                    (bn2): BatchNorm2d(256, eps=1e-05, momentum=0.1, affine=True, track_running_stats=True)
                    (conv3): Conv2d(256, 1024, kernel_size=(1, 1), stride=(1, 1), bias=False)
                    (bn3): BatchNorm2d(1024, eps=1e-05, momentum=0.1, affine=True, track_running_stats=True)
                    (relu): ReLU(inplace=True)
                  )
                  (20): Bottleneck(
                    (conv1): Conv2d(1024, 256, kernel_size=(1, 1), stride=(1, 1), bias=False)
                    (bn1): BatchNorm2d(256, eps=1e-05, momentum=0.1, affine=True, track_running_stats=True)
                    (conv2): Conv2d(256, 256, kernel_size=(3, 3), stride=(1, 1), padding=(1, 1), bias=False)
                    (bn2): BatchNorm2d(256, eps=1e-05, momentum=0.1, affine=True, track_running_stats=True)
                    (conv3): Conv2d(256, 1024, kernel_size=(1, 1), stride=(1, 1), bias=False)
                    (bn3): BatchNorm2d(1024, eps=1e-05, momentum=0.1, affine=True, track_running_stats=True)
                    (relu): ReLU(inplace=True)
                  )
                  (21): Bottleneck(
                    (conv1): Conv2d(1024, 256, kernel_size=(1, 1), stride=(1, 1), bias=False)
                    (bn1): BatchNorm2d(256, eps=1e-05, momentum=0.1, affine=True, track_running_stats=True)
                    (conv2): Conv2d(256, 256, kernel_size=(3, 3), stride=(1, 1), padding=(1, 1), bias=False)
                    (bn2): BatchNorm2d(256, eps=1e-05, momentum=0.1, affine=True, track_running_stats=True)
                    (conv3): Conv2d(256, 1024, kernel_size=(1, 1), stride=(1, 1), bias=False)
                    (bn3): BatchNorm2d(1024, eps=1e-05, momentum=0.1, affine=True, track_running_stats=True)
                    (relu): ReLU(inplace=True)
                  )
                  (22): Bottleneck(
                    (conv1): Conv2d(1024, 256, kernel_size=(1, 1), stride=(1, 1), bias=False)
                    (bn1): BatchNorm2d(256, eps=1e-05, momentum=0.1, affine=True, track_running_stats=True)
                    (conv2): Conv2d(256, 256, kernel_size=(3, 3), stride=(1, 1), padding=(1, 1), bias=False)
                    (bn2): BatchNorm2d(256, eps=1e-05, momentum=0.1, affine=True, track_running_stats=True)
                    (conv3): Conv2d(256, 1024, kernel_size=(1, 1), stride=(1, 1), bias=False)
                    (bn3): BatchNorm2d(1024, eps=1e-05, momentum=0.1, affine=True, track_running_stats=True)
                    (relu): ReLU(inplace=True)
                  )
                  (23): Bottleneck(
                    (conv1): Conv2d(1024, 256, kernel_size=(1, 1), stride=(1, 1), bias=False)
                    (bn1): BatchNorm2d(256, eps=1e-05, momentum=0.1, affine=True, track_running_stats=True)
                    (conv2): Conv2d(256, 256, kernel_size=(3, 3), stride=(1, 1), padding=(1, 1), bias=False)
                    (bn2): BatchNorm2d(256, eps=1e-05, momentum=0.1, affine=True, track_running_stats=True)
                    (conv3): Conv2d(256, 1024, kernel_size=(1, 1), stride=(1, 1), bias=False)
                    (bn3): BatchNorm2d(1024, eps=1e-05, momentum=0.1, affine=True, track_running_stats=True)
                    (relu): ReLU(inplace=True)
                  )
                  (24): Bottleneck(
                    (conv1): Conv2d(1024, 256, kernel_size=(1, 1), stride=(1, 1), bias=False)
                    (bn1): BatchNorm2d(256, eps=1e-05, momentum=0.1, affine=True, track_running_stats=True)
                    (conv2): Conv2d(256, 256, kernel_size=(3, 3), stride=(1, 1), padding=(1, 1), bias=False)
                    (bn2): BatchNorm2d(256, eps=1e-05, momentum=0.1, affine=True, track_running_stats=True)
                    (conv3): Conv2d(256, 1024, kernel_size=(1, 1), stride=(1, 1), bias=False)
                    (bn3): BatchNorm2d(1024, eps=1e-05, momentum=0.1, affine=True, track_running_stats=True)
                    (relu): ReLU(inplace=True)
                  )
                  (25): Bottleneck(
                    (conv1): Conv2d(1024, 256, kernel_size=(1, 1), stride=(1, 1), bias=False)
                    (bn1): BatchNorm2d(256, eps=1e-05, momentum=0.1, affine=True, track_running_stats=True)
                    (conv2): Conv2d(256, 256, kernel_size=(3, 3), stride=(1, 1), padding=(1, 1), bias=False)
                    (bn2): BatchNorm2d(256, eps=1e-05, momentum=0.1, affine=True, track_running_stats=True)
                    (conv3): Conv2d(256, 1024, kernel_size=(1, 1), stride=(1, 1), bias=False)
                    (bn3): BatchNorm2d(1024, eps=1e-05, momentum=0.1, affine=True, track_running_stats=True)
                    (relu): ReLU(inplace=True)
                  )
                  (26): Bottleneck(
                    (conv1): Conv2d(1024, 256, kernel_size=(1, 1), stride=(1, 1), bias=False)
                    (bn1): BatchNorm2d(256, eps=1e-05, momentum=0.1, affine=True, track_running_stats=True)
                    (conv2): Conv2d(256, 256, kernel_size=(3, 3), stride=(1, 1), padding=(1, 1), bias=False)
                    (bn2): BatchNorm2d(256, eps=1e-05, momentum=0.1, affine=True, track_running_stats=True)
                    (conv3): Conv2d(256, 1024, kernel_size=(1, 1), stride=(1, 1), bias=False)
                    (bn3): BatchNorm2d(1024, eps=1e-05, momentum=0.1, affine=True, track_running_stats=True)
                    (relu): ReLU(inplace=True)
                  )
                  (27): Bottleneck(
                    (conv1): Conv2d(1024, 256, kernel_size=(1, 1), stride=(1, 1), bias=False)
                    (bn1): BatchNorm2d(256, eps=1e-05, momentum=0.1, affine=True, track_running_stats=True)
                    (conv2): Conv2d(256, 256, kernel_size=(3, 3), stride=(1, 1), padding=(1, 1), bias=False)
                    (bn2): BatchNorm2d(256, eps=1e-05, momentum=0.1, affine=True, track_running_stats=True)
                    (conv3): Conv2d(256, 1024, kernel_size=(1, 1), stride=(1, 1), bias=False)
                    (bn3): BatchNorm2d(1024, eps=1e-05, momentum=0.1, affine=True, track_running_stats=True)
                    (relu): ReLU(inplace=True)
                  )
                  (28): Bottleneck(
                    (conv1): Conv2d(1024, 256, kernel_size=(1, 1), stride=(1, 1), bias=False)
                    (bn1): BatchNorm2d(256, eps=1e-05, momentum=0.1, affine=True, track_running_stats=True)
                    (conv2): Conv2d(256, 256, kernel_size=(3, 3), stride=(1, 1), padding=(1, 1), bias=False)
                    (bn2): BatchNorm2d(256, eps=1e-05, momentum=0.1, affine=True, track_running_stats=True)
                    (conv3): Conv2d(256, 1024, kernel_size=(1, 1), stride=(1, 1), bias=False)
                    (bn3): BatchNorm2d(1024, eps=1e-05, momentum=0.1, affine=True, track_running_stats=True)
                    (relu): ReLU(inplace=True)
                  )
                  (29): Bottleneck(
                    (conv1): Conv2d(1024, 256, kernel_size=(1, 1), stride=(1, 1), bias=False)
                    (bn1): BatchNorm2d(256, eps=1e-05, momentum=0.1, affine=True, track_running_stats=True)
                    (conv2): Conv2d(256, 256, kernel_size=(3, 3), stride=(1, 1), padding=(1, 1), bias=False)
                    (bn2): BatchNorm2d(256, eps=1e-05, momentum=0.1, affine=True, track_running_stats=True)
                    (conv3): Conv2d(256, 1024, kernel_size=(1, 1), stride=(1, 1), bias=False)
                    (bn3): BatchNorm2d(1024, eps=1e-05, momentum=0.1, affine=True, track_running_stats=True)
                    (relu): ReLU(inplace=True)
                  )
                  (30): Bottleneck(
                    (conv1): Conv2d(1024, 256, kernel_size=(1, 1), stride=(1, 1), bias=False)
                    (bn1): BatchNorm2d(256, eps=1e-05, momentum=0.1, affine=True, track_running_stats=True)
                    (conv2): Conv2d(256, 256, kernel_size=(3, 3), stride=(1, 1), padding=(1, 1), bias=False)
                    (bn2): BatchNorm2d(256, eps=1e-05, momentum=0.1, affine=True, track_running_stats=True)
                    (conv3): Conv2d(256, 1024, kernel_size=(1, 1), stride=(1, 1), bias=False)
                    (bn3): BatchNorm2d(1024, eps=1e-05, momentum=0.1, affine=True, track_running_stats=True)
                    (relu): ReLU(inplace=True)
                  )
                  (31): Bottleneck(
                    (conv1): Conv2d(1024, 256, kernel_size=(1, 1), stride=(1, 1), bias=False)
                    (bn1): BatchNorm2d(256, eps=1e-05, momentum=0.1, affine=True, track_running_stats=True)
                    (conv2): Conv2d(256, 256, kernel_size=(3, 3), stride=(1, 1), padding=(1, 1), bias=False)
                    (bn2): BatchNorm2d(256, eps=1e-05, momentum=0.1, affine=True, track_running_stats=True)
                    (conv3): Conv2d(256, 1024, kernel_size=(1, 1), stride=(1, 1), bias=False)
                    (bn3): BatchNorm2d(1024, eps=1e-05, momentum=0.1, affine=True, track_running_stats=True)
                    (relu): ReLU(inplace=True)
                  )
                  (32): Bottleneck(
                    (conv1): Conv2d(1024, 256, kernel_size=(1, 1), stride=(1, 1), bias=False)
                    (bn1): BatchNorm2d(256, eps=1e-05, momentum=0.1, affine=True, track_running_stats=True)
                    (conv2): Conv2d(256, 256, kernel_size=(3, 3), stride=(1, 1), padding=(1, 1), bias=False)
                    (bn2): BatchNorm2d(256, eps=1e-05, momentum=0.1, affine=True, track_running_stats=True)
                    (conv3): Conv2d(256, 1024, kernel_size=(1, 1), stride=(1, 1), bias=False)
                    (bn3): BatchNorm2d(1024, eps=1e-05, momentum=0.1, affine=True, track_running_stats=True)
                    (relu): ReLU(inplace=True)
                  )
                  (33): Bottleneck(
                    (conv1): Conv2d(1024, 256, kernel_size=(1, 1), stride=(1, 1), bias=False)
                    (bn1): BatchNorm2d(256, eps=1e-05, momentum=0.1, affine=True, track_running_stats=True)
                    (conv2): Conv2d(256, 256, kernel_size=(3, 3), stride=(1, 1), padding=(1, 1), bias=False)
                    (bn2): BatchNorm2d(256, eps=1e-05, momentum=0.1, affine=True, track_running_stats=True)
                    (conv3): Conv2d(256, 1024, kernel_size=(1, 1), stride=(1, 1), bias=False)
                    (bn3): BatchNorm2d(1024, eps=1e-05, momentum=0.1, affine=True, track_running_stats=True)
                    (relu): ReLU(inplace=True)
                  )
                  (34): Bottleneck(
                    (conv1): Conv2d(1024, 256, kernel_size=(1, 1), stride=(1, 1), bias=False)
                    (bn1): BatchNorm2d(256, eps=1e-05, momentum=0.1, affine=True, track_running_stats=True)
                    (conv2): Conv2d(256, 256, kernel_size=(3, 3), stride=(1, 1), padding=(1, 1), bias=False)
                    (bn2): BatchNorm2d(256, eps=1e-05, momentum=0.1, affine=True, track_running_stats=True)
                    (conv3): Conv2d(256, 1024, kernel_size=(1, 1), stride=(1, 1), bias=False)
                    (bn3): BatchNorm2d(1024, eps=1e-05, momentum=0.1, affine=True, track_running_stats=True)
                    (relu): ReLU(inplace=True)
                  )
                  (35): Bottleneck(
                    (conv1): Conv2d(1024, 256, kernel_size=(1, 1), stride=(1, 1), bias=False)
                    (bn1): BatchNorm2d(256, eps=1e-05, momentum=0.1, affine=True, track_running_stats=True)
                    (conv2): Conv2d(256, 256, kernel_size=(3, 3), stride=(1, 1), padding=(1, 1), bias=False)
                    (bn2): BatchNorm2d(256, eps=1e-05, momentum=0.1, affine=True, track_running_stats=True)
                    (conv3): Conv2d(256, 1024, kernel_size=(1, 1), stride=(1, 1), bias=False)
                    (bn3): BatchNorm2d(1024, eps=1e-05, momentum=0.1, affine=True, track_running_stats=True)
                    (relu): ReLU(inplace=True)
                  )
                )
                (7): Sequential(
                  (0): Bottleneck(
                    (conv1): Conv2d(1024, 512, kernel_size=(1, 1), stride=(1, 1), bias=False)
                    (bn1): BatchNorm2d(512, eps=1e-05, momentum=0.1, affine=True, track_running_stats=True)
                    (conv2): Conv2d(512, 512, kernel_size=(3, 3), stride=(2, 2), padding=(1, 1), bias=False)
                    (bn2): BatchNorm2d(512, eps=1e-05, momentum=0.1, affine=True, track_running_stats=True)
                    (conv3): Conv2d(512, 2048, kernel_size=(1, 1), stride=(1, 1), bias=False)
                    (bn3): BatchNorm2d(2048, eps=1e-05, momentum=0.1, affine=True, track_running_stats=True)
                    (relu): ReLU(inplace=True)
                    (downsample): Sequential(
                      (0): Conv2d(1024, 2048, kernel_size=(1, 1), stride=(2, 2), bias=False)
                      (1): BatchNorm2d(2048, eps=1e-05, momentum=0.1, affine=True, track_running_stats=True)
                    )
                  )
                  (1): Bottleneck(
                    (conv1): Conv2d(2048, 512, kernel_size=(1, 1), stride=(1, 1), bias=False)
                    (bn1): BatchNorm2d(512, eps=1e-05, momentum=0.1, affine=True, track_running_stats=True)
                    (conv2): Conv2d(512, 512, kernel_size=(3, 3), stride=(1, 1), padding=(1, 1), bias=False)
                    (bn2): BatchNorm2d(512, eps=1e-05, momentum=0.1, affine=True, track_running_stats=True)
                    (conv3): Conv2d(512, 2048, kernel_size=(1, 1), stride=(1, 1), bias=False)
                    (bn3): BatchNorm2d(2048, eps=1e-05, momentum=0.1, affine=True, track_running_stats=True)
                    (relu): ReLU(inplace=True)
                  )
                  (2): Bottleneck(
                    (conv1): Conv2d(2048, 512, kernel_size=(1, 1), stride=(1, 1), bias=False)
                    (bn1): BatchNorm2d(512, eps=1e-05, momentum=0.1, affine=True, track_running_stats=True)
                    (conv2): Conv2d(512, 512, kernel_size=(3, 3), stride=(1, 1), padding=(1, 1), bias=False)
                    (bn2): BatchNorm2d(512, eps=1e-05, momentum=0.1, affine=True, track_running_stats=True)
                    (conv3): Conv2d(512, 2048, kernel_size=(1, 1), stride=(1, 1), bias=False)
                    (bn3): BatchNorm2d(2048, eps=1e-05, momentum=0.1, affine=True, track_running_stats=True)
                    (relu): ReLU(inplace=True)
                  )
                )
              )
              (pool): AdaptiveAvgPool2d(output_size=(1, 1))
            )
            (proj_embeddings): Linear(in_features=2048, out_features=768, bias=True)
            (position_embeddings): Embedding(512, 768)
            (token_type_embeddings): Embedding(2, 768)
            (word_embeddings): Embedding(30522, 768, padding_idx=0)
            (LayerNorm): LayerNorm((768,), eps=1e-12, elementwise_affine=True)
            (dropout): Dropout(p=0.1, inplace=False)
          )
        )
      )
      (dropout): Dropout(p=0.1, inplace=False)
      (classifier): Sequential(
        (0): BertPredictionHeadTransform(
          (dense): Linear(in_features=768, out_features=768, bias=True)
          (LayerNorm): LayerNorm((768,), eps=1e-12, elementwise_affine=True)
        )
        (1): Linear(in_features=768, out_features=2, bias=True)
      )
    )
    (losses): Losses(
      (losses): ModuleList(
        (0): MMFLoss(
          (loss_criterion): CrossEntropyLoss(
            (loss_fn): CrossEntropyLoss()
          )
        )
      )
    )
  )
)
[32m2021-03-04T20:47:57 | mmf.utils.general: [0mTotal Parameters: 169793346. Trained Parameters: 169793346
[32m2021-03-04T20:47:57 | mmf.trainers.core.training_loop: [0mStarting training...
…
